ResidualMPC/ResidualMPC/model_test.pth (torch, 23416 bytes, 7 tensors)

logstd f4 [6]
0	0xbd9d3b94	-0.07677379
1	0x3ca93763	0.020656293
2	0xbda67934	-0.081285864
3	0xbd854ee7	-0.0650919
4	0xbdfdd905	-0.12394909
5	0xbd43c35b	-0.047793727

mean_net.0.weight f4 [64, 6]
0	0x3ddfff31	0.10937346
1	0xbe9b8b5e	-0.30379766
2	0xbdde43ca	-0.108527735
3	0x3e8b177e	0.2716636
4	0xbebb1bc0	-0.3654461
5	0x3e433211	0.19062068
6	0x3d60937f	0.054828163
7	0x3ddcefe9	0.10787947
8	0x3d3a613a	0.04550288
9	0x3d207b47	0.039180066
10	0x3dc324de	0.09528516
11	0x3d406a3a	0.046976306
12	0x3e2cf5f2	0.16890696
13	0xbe89f733	-0.2694641
14	0xbe08fc34	-0.13377458
15	0x3d537c26	0.05163207
16	0x3d4175fd	0.047231663
17	0x3a86f006	0.0010294921
18	0x3ec1fd51	0.37888578
19	0x3e7cb0d3	0.24676828
20	0xbde6e504	-0.1127415
21	0xbea08f32	-0.3135925
22	0x3d6abf65	0.057311434
23	0xbd58fede	-0.052977435
24	0xbe91a2ba	-0.28444463
25	0xbce221b4	-0.027603962
26	0x3e9880e6	0.29785842
27	0x3e4c61a4	0.19959122
28	0xbedf4443	-0.43606767
29	0x3e11817e	0.14209554
30	0x3d41320a	0.04716686
31	0x3ee6bbaf	0.45065066
32	0x3eb13915	0.34613863
33	0xbedeadca	-0.43491966
34	0xbea1eb8c	-0.3162502
35	0xbe1289f7	-0.14310442
36	0x3ea07620	0.31340122
37	0xbca1a069	-0.01972981
38	0x3e56f738	0.20992744
39	0xbe71182e	-0.2354438
40	0x3eeb2c24	0.45932114
41	0xbe28cec6	-0.16485128
42	0x3eaf36a8	0.34221387
43	0xbdc60265	-0.096684255
44	0xbe8e8671	-0.27836946
45	0x3e878c81	0.26474383
46	0xbdf6d52c	-0.12052378
47	0x3dbc2861	0.09187389
48	0x3dee3c8a	0.11632641
49	0x3d6214cb	0.05519561
50	0xbec30eb8	-0.38097167
51	0xbe46bf0f	-0.1940882
52	0x3e370afd	0.17875285
53	0xbbdd47d7	-0.0067529487
54	0x3ebc748f	0.36807677
55	0x3ef845e6	0.48490828
56	0x3dcd9cbe	0.10039662
57	0xbeaa6695	-0.3328139
58	0x3ed6d136	0.4195649
59	0x3df9102f	0.1216129
60	0xbe676b28	-0.2259947
61	0x3e87d02a	0.26526004
62	0x3e9407d1	0.28912213
63	0x3e808a21	0.25105384
64	0xbe5c3fac	-0.21508664
65	0xbdc50f47	-0.096220545
66	0x3e2b0566	0.16701278
67	0x3e662bdd	0.2247767
68	0xbe895d8d	-0.26829186
69	0xbe6d0bb4	-0.23148996
70	0x3eacd54a	0.33756477
71	0x3b86ebc8	0.004117463
72	0x3e910cb4	0.28330004
73	0xbe010704	-0.12600332
74	0x3e129eb5	0.14318354
75	0x3e019314	0.12653762
76	0x3e1e2d6a	0.15447012
77	0x3e2aee66	0.16692504
78	0xbe9198d1	-0.28436902
79	0x3e935e33	0.28782806
80	0xbe5b73cb	-0.2143089
81	0xbeaf8e89	-0.34288433
82	0xbc81da8c	-0.015851282
83	0x3b2d3bb5	0.0026433293
84	0x3e504382	0.20338252
85	0xbe58ba62	-0.2116485
86	0xbecaddf7	-0.3962247
87	0x3e9945bb	0.29936013
88	0x3e009714	0.12557632
89	0x3e1e6e54	0.15471774
90	0x3e46c53b	0.19411175
91	0xbede1b99	-0.4338043
92	0xbbc3df42	-0.005977542
93	0x3d63cde0	0.05561626
94	0xbe8e1570	-0.2775073
95	0xbe27e5d4	-0.16396266
96	0x3e310481	0.17286874
97	0x3e92fb70	0.28707457
98	0xbe0360a8	-0.1282984
99	0xbe1e9d9a	-0.15489808
100	0x3effbe77	0.4995
101	0xbc454fcd	-0.012042952
102	0x3eadf61e	0.33976835
103	0x3e6d19f6	0.23154435
104	0xbe601c92	-0.21885899
105	0xbedb3333	-0.428125
106	0x3eb7fab5	0.35933462
107	0x3ddc68cd	0.10762177
108	0x3e41659a	0.18886414
109	0x3e245e91	0.16051699
110	0x3e01c48c	0.12672633
111	0x3ed6ed44	0.41977894
112	0x3ea72a9b	0.32649693
113	0xbe7a9d38	-0.24474037
114	0xbe07b5bd	-0.13252921
115	0x3e9909ed	0.29890385
116	0x3e9b096e	0.30280632
117	0x3e9ff21a	0.31239396
118	0xbea2b831	-0.31781152
119	0xbe81b262	-0.25331408
120	0xbe21b660	-0.15792227
121	0x3df10697	0.11768835
122	0x3ec58218	0.38575816
123	0xbecdff6e	-0.4023394
124	0x3da45bfa	0.08025356
125	0xbe2f4233	-0.17115097
126	0xbf0ac533	-0.5420715
127	0xbda62f99	-0.08114547
128	0x3e820550	0.25394678
129	0x3eb87616	0.36027592
130	0xbe88734b	-0.26650462
131	0xbca4e386	-0.020128023
132	0x3ebab99b	0.3646973
133	0x3ead3077	0.33826038
134	0x3e8936b9	0.26799563
135	0x3e331288	0.17487538
136	0x3eadc1ed	0.33937016
137	0x3db8d67a	0.09025283
138	0xbe9f76d0	-0.31145334
139	0xbee15c99	-0.4401596
140	0xbeb8404a	-0.3598655
141	0xbd610314	-0.054934576
142	0xbe46464a	-0.1936275
143	0x3d370dee	0.04469102
144	0x3e8833c2	0.26601988
145	0xbe4a6e9d	-0.19768758
146	0x3dbadc39	0.091240354
147	0x3d9b78b7	0.07591384
148	0x3e35b37b	0.17744248
149	0x3e43ab62	0.19108346
150	0xbd107e77	-0.035276856
151	0x3e9fbc60	0.31198406
152	0xbc7a7791	-0.015287296
153	0x3cfdb2f4	0.03096912
154	0xbeeaffce	-0.45898288
155	0xbde24bb1	-0.11049593
156	0xbea15993	-0.31513652
157	0xbe40ea57	-0.18839394
158	0x3e643cf1	0.22288872
159	0xbe24b9fd	-0.16086574
160	0xbe967705	-0.2938768
161	0x3de16f89	0.11007602
162	0x3e47ac89	0.1949941
163	0x3e7efe3a	0.24901667
164	0xbdf16d82	-0.11788465
165	0x3de5fe85	0.112301864
166	0xbcf35903	-0.02970553
167	0x3d48d818	0.049034208
168	0xbeacb0b9	-0.3372858
169	0xbe664d1c	-0.22490352
170	0xbe130aaa	-0.14359537
171	0x3e60e837	0.21963583
172	0x3db310b9	0.08743424
173	0x3d6e3b7c	0.058162197
174	0x3e89a681	0.26884845
175	0x3edce753	0.43145236
176	0x3ea98f9f	0.33117387
177	0xbd89607b	-0.06707855
178	0xbdb8e3dc	-0.09027836
179	0x3ea06275	0.31325117
180	0xbd992261	-0.074772604
181	0xbd594220	-0.053041577
182	0xbeb486ed	-0.3525919
183	0x3c5d5480	0.013508916
184	0xbe8aa6e5	-0.27080455
185	0x3ea8cfac	0.3297094
186	0xbe533604	-0.20626074
187	0xbe931f1e	-0.28734678
188	0xba8f33b8	-0.0010925448
189	0xbe67212d	-0.2257125
190	0x3cb962a8	0.02263005
191	0xbdfdfd5f	-0.12401842
192	0xbe13d08f	-0.14435028
193	0x3d448e44	0.047987238
194	0x3e6891df	0.22711895
195	0xbec5e761	-0.3865309
196	0x3e324a66	0.17411193
197	0x3e3734f1	0.1789129
198	0x3f03a658	0.51425695
199	0xbe91a0f9	-0.28443125
200	0x3db9e5ac	0.090770096
201	0xbe8d421d	-0.27589503
202	0x3ea5b0e2	0.32361513
203	0xbe13b2e1	-0.14423706
204	0x3e3d2068	0.18469393
205	0xbdb9cb7b	-0.09072014
206	0xbdfbf50f	-0.123026006
207	0x3c47a7c0	0.012185991
208	0x3dd72e8e	0.105069265
209	0x3e01689e	0.12637565
210	0x3ce23b42	0.027616147
211	0x3e0e5679	0.13900174
212	0xbec6c026	-0.38818473
213	0x3ecd2801	0.40069583
214	0x3ed17402	0.4090882
215	0x3e8dae64	0.27672112
216	0x3e6d8864	0.2319656
217	0xbeac0689	-0.33598736
218	0xbe2f94a1	-0.17146541
219	0x3eb787de	0.35845846
220	0xbe80da93	-0.2516676
221	0x3eb16f30	0.34655142
222	0xbe75505a	-0.23956433
223	0xbf033f03	-0.51268023
224	0x3dd35ef3	0.103208445
225	0xbeb943c1	-0.36184505
226	0xbe27cd82	-0.16386989
227	0x3e6d0ab4	0.23148614
228	0x3e997cb3	0.2997795
229	0x3efb9f2d	0.4914488
230	0xbd27cd30	-0.040967166
231	0xbed58502	-0.4170304
232	0x3ed9ca7c	0.42537296
233	0x3cb0f54a	0.021601338
234	0xbe0a3f4f	-0.13500713
235	0x3d8b9b39	0.06816716
236	0xbea1eeb6	-0.31627434
237	0x3e905871	0.28192475
238	0x3e2b773c	0.16744703
239	0xbe928eea	-0.2862466
240	0xbe83600c	-0.25659215
241	0xbe28b851	-0.16476561
242	0x3e34fabd	0.17673774
243	0x3b9916ac	0.004671892
244	0xbecf5b76	-0.40499467
245	0xbcf8de33	-0.03037939
246	0xbf08a68b	-0.53379124
247	0xbea6e3cf	-0.3259568
248	0xbe8b88ef	-0.2725291
249	0x3e8c8017	0.27441475
250	0x3e55b02b	0.20867984
251	0xbe2bc228	-0.16773283
252	0xbc9769b9	-0.01848303
253	0x3e4d1759	0.20028438
254	0x3d0d9a9f	0.034571286
255	0xbe2ff704	-0.17184073

mean_net.0.bias f4 [64]
0	0xbec53fc8	-0.38525224
1	0x3e301bdf	0.17198132
2	0x3ce9ba6a	0.028531272
3	0x3e784450	0.24244809
4	0xbe1389da	-0.14408055
5	0xbd667c6b	-0.056270998
6	0x3e0161f5	0.12635024
7	0x3e67f81a	0.22653237
8	0x3e45c63e	0.19313905
9	0xbca234ee	-0.01980063
10	0x3ecc3aa0	0.39888477
11	0x3e4ec103	0.20190816
12	0x3e2d86f4	0.16946012
13	0x3e4a4a0d	0.1975481
14	0x3ed6ec70	0.41977262
15	0x3dd69536	0.104776785
16	0x3cba2829	0.022724228
17	0x3ebaac5a	0.3645962
18	0x3d6e0299	0.058107946
19	0xbeb912ef	-0.36147258
20	0xbd195c6e	-0.037441663
21	0xbec3fddd	-0.3827962
22	0xbe1074f4	-0.14107114
23	0xbec91c1b	-0.39279255
24	0x3e345c61	0.17613365
25	0xbe215c82	-0.15757945
26	0xbdc1aa32	-0.0945629
27	0x3e5ef4df	0.21773098
28	0x3e040781	0.12893488
29	0xbe738f8f	-0.23785232
30	0x3e13e21b	0.14441721
31	0x3e5b0764	0.21389538
32	0xbe9ed7c4	-0.3102399
33	0x3ebaf86d	0.3651766
34	0xbeb46abb	-0.3523768
35	0xbe0ccee8	-0.13750803
36	0xbebb5c88	-0.36594033
37	0x3e2a9beb	0.1666104
38	0x3e4f89d4	0.20267421
39	0x3ea1e855	0.31622568
40	0xbdbdc0c3	-0.09265282
41	0x3e2e353a	0.17012492
42	0xbdd61ba0	-0.10454488
43	0xbf0b6e20	-0.5446491
44	0x3e83753e	0.25675386
45	0xbdb3f46e	-0.08786856
46	0xbe01bc0b	-0.12669389
47	0xbe5ab1a8	-0.21356833
48	0xbd167b19	-0.03673849
49	0x3dc059b6	0.09392111
50	0x3d8db014	0.0691835
51	0xbed78afd	-0.42098227
52	0x3e493bbb	0.19651692
53	0x3e0a4760	0.1350379
54	0x3eab8de0	0.3350668
55	0x3e34f2cf	0.17670749
56	0xbed68a7c	-0.4190253
57	0x3ec85d2e	0.3913359
58	0xbeb9c482	-0.36282736
59	0x3e2de1f1	0.16980721
60	0xbc9dd5fb	-0.019267073
61	0x3e682963	0.22672038
62	0xbe94137e	-0.2892112
63	0x3ebecb2b	0.3726438

mean_net.2.weight f4 [64, 64]
0	0xbd5e0104	-0.054200187
1	0xbe0dda3e	-0.13852784
2	0x3dce127b	0.100621186
3	0x3e426a85	0.18985946
4	0x3d757e71	0.059935037
5	0x3d210ecf	0.039320763
6	0x3e695917	0.22787891
7	0x3e09645e	0.13417193
8	0x3b8a0056	0.004211466
9	0x3d1267cc	0.03574352
10	0xbcad2045	-0.021133551
11	0x3d894763	0.06703069
12	0x3d829ac7	0.06377178
13	0xbde67bf8	-0.11254114
14	0x3e25c51f	0.16188477
15	0x3d0f2566	0.034947775
16	0x3e248d89	0.16069616
17	0x3e343de5	0.17601736
18	0xbdba2ccc	-0.090905756
19	0xbded5867	-0.11589127
20	0xbd8090c6	-0.06277613
21	0xbe52c401	-0.20582582
22	0x3bfeb2d0	0.007772781
23	0xbd9aa73b	-0.07551428
24	0x3dee56d1	0.11637653
25	0x3d04e6f9	0.032446835
26	0x3cd6dee7	0.026229335
27	0x3e0d59d8	0.13803804
28	0xbe3e61b7	-0.18591963
29	0x3da9d3b4	0.08292332
30	0x3dac1f1f	0.084043734
31	0xbdef35e2	-0.11680199
32	0x3d617992	0.05504758
33	0x3d85152b	0.06498178
34	0x3d8a576b	0.06754955
35	0x3d1e3677	0.03862616
36	0x3e0576d2	0.13033608
37	0xbdf7dd48	-0.12102753
38	0x3ce6d5b4	0.028178073
39	0x3db88128	0.090090096
40	0xbddca530	-0.107736945
41	0xbac7eb15	-0.0015252555
42	0x3dc34db9	0.09536309
43	0xbdd41cc3	-0.10357048
44	0x3dd6396c	0.10460171
45	0xbe262d3a	-0.1622819
46	0xbd7c7b84	-0.06164123
47	0x3e051b26	0.12998638
48	0x3e077dd1	0.13231589
49	0xbd830de5	-0.063991345
50	0xbdfe23c6	-0.12409167
51	0xbd912f4b	-0.070890985
52	0xbe1a2bf1	-0.15055825
53	0xbca2d89c	-0.019878678
54	0xbd0bb70f	-0.034110125
55	0xbc8f2769	-0.017474847
56	0xbda0a388	-0.07843691
57	0xbdf05a80	-0.117360115
58	0xbe0f3106	-0.13983545
59	0xbdd9bd40	-0.106318
60	0xbc0df93a	-0.008665377
61	0xbdf0608c	-0.11737165
62	0xbdc074b4	-0.09397259
63	0x3e22513d	0.15851302
64	0xbc8ba4e1	-0.017046394
65	0xbd34ff75	-0.044188935
66	0x3d3743b7	0.044742312
67	0xbe2dd338	-0.16975105
68	0xbd10fec0	-0.0353992
69	0xbdb9dd60	-0.09075427
70	0xbdf42b75	-0.11922351
71	0xbc449a34	-0.0119996555
72	0xbe3b113f	-0.18268298
73	0xbe05dac7	-0.13071738
74	0xbca2483a	-0.019809831
75	0xbddba380	-0.107245445
76	0xbe628bf7	-0.22123705
77	0xbe14efef	-0.14544652
78	0x3d555761	0.052085284
79	0x3d16c47e	0.036808483
80	0xbd381c47	-0.044948842
81	0xbe9ba41a	-0.30398637
82	0x3d053045	0.032516737
83	0x3dc5adf8	0.096523225
84	0xba18d0fb	-0.00058294804
85	0x3e9284d4	0.28616965
86	0xbd10b763	-0.03533114
87	0x3dbcf463	0.092263006
88	0xbd831064	-0.06399611
89	0x3b47ba82	0.0030476158
90	0xbd9b08db	-0.075700484
91	0xbba8a649	-0.005146776
92	0x3d6a23bc	0.057162985
93	0xbdbc74d5	-0.092019714
94	0xbd33de47	-0.043913152
95	0xbd693f9b	-0.056945425
96	0xbd807f01	-0.06274224
97	0xbd42e73d	-0.047583807
98	0xbd3fe484	-0.04684879
99	0x3e195fca	0.14977947
100	0x3a6259c6	0.0008634593
101	0xbcc1f360	-0.02367562
102	0xbe669f9c	-0.22521824
103	0xbdc74a27	-0.0973094
104	0x3da1a698	0.07893103
105	0xbddd943a	-0.108192876
106	0xbdf06477	-0.11737912
107	0x3dd0dc0e	0.10198222
108	0x3c728fb8	0.014804773
109	0xbc9202bf	-0.017823575
110	0xbd87d099	-0.06631584
111	0xbd7a1d6a	-0.061063208
112	0xbe05cb68	-0.13065875
113	0x3cc19a7d	0.023633236
114	0xbdc14529	-0.094370194
115	0x3b86026c	0.004089644
116	0xbd865d85	-0.06560806
117	0xbc8581e2	-0.016297285
118	0xbd835912	-0.06413473
119	0xbe8afd91	-0.2714658
120	0x3e334e8d	0.17510433
121	0xbd824ffc	-0.06362912
122	0x3e92e035	0.2868668
123	0xbe73e1ad	-0.23816557
124	0xbe0194df	-0.12654446
125	0xbe1624d4	-0.14662486
126	0x3cfcd01e	0.030860957
127	0xbe6f8818	-0.2339176
128	0x3cc64ef7	0.024207575
129	0xbdb163ea	-0.08661635
130	0xbaaa9b93	-0.0013016335
131	0xbd6534d0	-0.05595857
132	0x3dd9f5e3	0.10642602
133	0x3c865277	0.016396744
134	0xbcde52e3	-0.027139133
135	0x3d320d2b	0.04346959
136	0x3c982d60	0.018576324
137	0xbe063cd2	-0.13109139
138	0xbdba0079	-0.090821214
139	0x3d7d3809	0.061821017
140	0xbd3a9c2f	-0.045559105
141	0x3db8b773	0.09019365
142	0xbd2df83e	-0.04247307
143	0x3ddd1ec3	0.10796883
144	0x3dc6a48b	0.09699353
145	0xbd7abd92	-0.061215945
146	0xbb589644	-0.003304855
147	0x3e1d8205	0.1538163
148	0x3d0a90a1	0.033829335
149	0x3d66db7d	0.056361664
150	0xbd34e2e8	-0.044161707
151	0x3e4b9d20	0.19884157
152	0xb9192948	-0.00014606596
153	0xbb92da60	-0.0044815987
154	0x3dc85e44	0.09783605
155	0x3932c820	0.00017049955
156	0xbd8d3023	-0.06893947
157	0xbe1738e5	-0.14767797
158	0x3d62cd9c	0.055371866
159	0x3e192562	0.14955667
160	0xbd95d58f	-0.07316124
161	0x3cd572b8	0.026055679
162	0xbb95c424	-0.004570501
163	0xbce3ce24	-0.027808256
164	0xbd3e4257	-0.046449985
165	0xbd15a72b	-0.036536377
166	0xbd5503f0	-0.05200571
167	0x3d70830b	0.058718722
168	0x3d7a55c1	0.061116938
169	0x3d90e85a	0.070755675
170	0x3d8e24dd	0.06940625
171	0x3d924c70	0.071434855
172	0x3bfddf6b	0.0077475808
173	0xbc956fd8	-0.018241808
174	0x3db94c6f	0.09047782
175	0xbb81ff7f	-0.003967225
176	0x3d003c1a	0.031307317
177	0x3e2b1e34	0.1671074
178	0xbd56112a	-0.052262463
179	0x3e2ba078	0.16760433
180	0xbdc593f2	-0.09647359
181	0x3df45b27	0.119314484
182	0x3db03215	0.086033024
183	0xbe04cc48	-0.12968552
184	0x3daa58ec	0.08317742
185	0xbd5c23f0	-0.05374521
186	0x3d9ec800	0.07752991
187	0xbe07147c	-0.13191408
188	0x3c98333f	0.018579124
189	0xbdb3803d	-0.08764694
190	0xbdc2edf5	-0.09518043
191	0xbe1dc4a6	-0.15407047
192	0xbc645755	-0.013936837
193	0x3d8a7130	0.0675987
194	0x3dc936dc	0.09824917
195	0x3d8cbc97	0.06871908
196	0x3e1e8be2	0.15483049
197	0x3d991eab	0.074765526
198	0xbddc87d3	-0.10768094
199	0x3e20dbe6	0.15708885
200	0xbe280781	-0.16409113
201	0xbcd38b55	-0.025823275
202	0xbcc35814	-0.02384571
203	0xbd1956f3	-0.037436437
204	0xbb1a4e3a	-0.0023545162
205	0xbdaa0bdf	-0.083030455
206	0xbdbdd65c	-0.092694014
207	0xbd85816b	-0.06518825
208	0xbe0e4850	-0.13894773
209	0x3e397f26	0.1811491
210	0x3bddf468	0.0067735203
211	0x3d8980ad	0.06713996
212	0xbdee6e92	-0.11642183
213	0x3d8a034f	0.06738912
214	0x3cc7f016	0.024406474
215	0xbe9be615	-0.30448976
216	0x3e2bde18	0.16783941
217	0xbcdcfe0b	-0.026976606
218	0x3e18a86e	0.14908001
219	0x3c9862d3	0.01860181
220	0xbdd5381d	-0.104110934
221	0xbd417c06	-0.04723742
222	0x3d6abd43	0.0573094
223	0xbd6182ce	-0.055056386
224	0xbe4c6117	-0.19958912
225	0x3cb638a1	0.0222438
226	0xbc1b3cec	-0.009474974
227	0x3cf8697c	0.030323736
228	0xbd49e4e0	-0.049290538
229	0xbc4cefef	-0.0125083765
230	0x3dd662d5	0.104680695
231	0xbd8ea69c	-0.06965372
232	0x3dd3ea24	0.10347393
233	0x3d9eccd7	0.07753914
234	0xbdb44529	-0.08802254
235	0xbcfcb8cd	-0.030849839
236	0xbd0cd5da	-0.034383632
237	0xbceee828	-0.029163435
238	0x3c2b84f7	0.010468713
239	0xbd2ae482	-0.04172183
240	0xbd98d9ce	-0.07463418
241	0xbe12846f	-0.14308332
242	0x3d7911f1	0.060808126
243	0xbde50dc5	-0.11184267
244	0xbd53cfdb	-0.0517119
245	0xbd085100	-0.033280373
246	0xbc0862bd	-0.008324322
247	0x3d1f315e	0.03886544
248	0xbcc30278	-0.023804888
249	0xbd2035a5	-0.03911366
250	0x3b863b3e	0.0040964177
251	0x3e7a3ec8	0.24438012
252	0xbd90e48f	-0.07074844
253	0xbd372a7b	-0.044718247
254	0xbcc14b57	-0.023595495
255	0x3ddb16b9	0.106976934

mean_net.2.bias f4 [64]
0	0xbe08d697	-0.1336311
1	0xbd86fbcd	-0.06590996
2	0xbe288cfa	-0.16460028
3	0x3e545cad	0.20738478
4	0x3e4a68a5	0.19766481
5	0xbd9e01fb	-0.077152215
6	0x3c2acf51	0.010425405
7	0xbddfe974	-0.109331995
8	0x3d8e3f9e	0.06945728
9	0x3dc7e1c6	0.0975986
10	0xbd4ede65	-0.05050506
11	0x3d8251df	0.06363272
12	0xbd5f2cb4	-0.05448599
13	0xbe8895ee	-0.26676887
14	0x3e18c48b	0.14918725
15	0x3dbb17c7	0.091353945
16	0x3db2c886	0.08729653
17	0x3c40c99a	0.011766816
18	0x3c515c7d	0.012778399
19	0x3dc9524b	0.09830149
20	0xbdeae281	-0.114689834
21	0x3df51eea	0.11968787
22	0xbe82e2c9	-0.25563648
23	0x3b9128ae	0.004429898
24	0x3e0f28f3	0.13980465
25	0xbe0a0fab	-0.1348254
26	0xbdd0bff2	-0.10192861
27	0xbc12e289	-0.008965143
28	0x3e3f5012	0.18682888
29	0xbcc04453	-0.02347008
30	0xbc6fe364	-0.0146416165
31	0x3d26bf1d	0.040709604
32	0xbd1c8680	-0.038214207
33	0x3d3c4cbe	0.045971625
34	0xbd6a3bde	-0.057186
35	0xbcdb92a9	-0.026803331
36	0x3e4bd54a	0.19905582
37	0x3dfb746b	0.12278064
38	0x3d9a238a	0.0752631
39	0x3d9505ff	0.07276534
40	0xbe3b8958	-0.18314111
41	0x3deead7f	0.116541855
42	0xbc973a25	-0.018460343
43	0xbe7a4ac7	-0.24442588
44	0x3d837540	0.06418848
45	0x3de9f285	0.1142321
46	0x3e8160ff	0.25269315
47	0x3d7660d3	0.060150933
48	0x3de9a391	0.11408151
49	0xbdefa4aa	-0.11701329
50	0xbd7f1963	-0.06228007
51	0xbcc63684	-0.024195917
52	0x3da75844	0.08171132
53	0xbdb5ee35	-0.08883325
54	0x3e30c248	0.17261612
55	0x3d90dcf5	0.07073394
56	0x3e1b881e	0.15188643
57	0xbdad22c8	-0.084538996
58	0x3d204204	0.039125457
59	0x3e5a706d	0.2133195
60	0x3dbb2ef6	0.091398165
61	0x3c9cf40a	0.019159336
62	0x3e63516f	0.22199033
63	0x3df6e6ef	0.12055766

mean_net.4.weight f4 [6, 64]
0	0x3df551fe	0.119785294
1	0xbc4024b5	-0.011727502
2	0xbd7d075e	-0.061774604
3	0x3e10f34e	0.14155313
4	0x3bb5c0c2	0.00554666
5	0xbe447f36	-0.19189152
6	0xbe2e6a69	-0.1703278
7	0x3e1a4466	0.15065154
8	0x3e1558b3	0.14584617
9	0x3e968c3c	0.29403865
10	0xbd966a56	-0.07344501
11	0xbdfee1fe	-0.12445448
12	0xbd07d619	-0.033163164
13	0xbdbdec25	-0.092735566
14	0x3d6de0ec	0.05807583
15	0x3e109fee	0.14123508
16	0xbdcec00e	-0.10095225
17	0xbe5dda80	-0.21665382
18	0xbd275a9a	-0.04085789
19	0xbdf3e9f9	-0.11909861
20	0x3e30f589	0.17281164
21	0x3c6d9b03	0.01450229
22	0xbe3977fd	-0.18112178
23	0x3e4921c4	0.19641787
24	0xbdf23419	-0.11826343
25	0x3db0a95e	0.08626054
26	0xbe29e069	-0.16589512
27	0x3e3c4eb5	0.183894
28	0x3e25cb17	0.16190754
29	0x3e84dbda	0.25948983
30	0x3e096ade	0.13419673
31	0x3e9d0ef8	0.30675483
32	0x3debb47b	0.11509033
33	0x3e08e2dd	0.13367791
34	0xbd8bb5fd	-0.06821821
35	0x3e1339f7	0.1437758
36	0x3d1b6e9c	0.037947282
37	0x3d27d8fa	0.04097841
38	0xbdbdf3f5	-0.09275047
39	0x3d0f865b	0.03504024
40	0xbd0b2593	-0.03397138
41	0x3e02dfb4	0.12780648
42	0xbdca88dc	-0.09889385
43	0xbe259f27	-0.16173993
44	0x3e868cfc	0.26279438
45	0xbe251f68	-0.16125262
46	0x3d8b0004	0.06787112
47	0xbe1c4cbe	-0.1526365
48	0x3d805f2d	0.06268153
49	0x3e118fb2	0.14214972
50	0x3e7ba6dd	0.24575372
51	0xbdf518a0	-0.119675875
52	0x3d65d41d	0.05611049
53	0x3e44aea8	0.19207251
54	0x3d6b5c11	0.05746085
55	0x3e5beef9	0.2147788
56	0x3e2d3568	0.16914904
57	0xbe3193a5	-0.17341478
58	0x3e6f6c1a	0.23381081
59	0x3e408502	0.18800738
60	0xbde4338f	-0.111426465
61	0x3e406ee8	0.18792307
62	0x3e349089	0.17633261
63	0x3e16ab3f	0.14713763
64	0xbc809a40	-0.015698552
65	0xbd9a63cc	-0.07538566
66	0xbe013a4f	-0.12619899
67	0x3d838d44	0.06423429
68	0x3daa63de	0.083198294
69	0x3c615feb	0.013755779
70	0xbe15de7e	-0.14635655
71	0x3c139fa6	0.009010231
72	0xbc1cdbbd	-0.009573874
73	0xbda1e153	-0.07904305
74	0xbdee277a	-0.11628623
75	0xbda57c9b	-0.08080407
76	0xbdd846ff	-0.105604164
77	0xbe148304	-0.14503103
78	0x3dcef498	0.10105246
79	0x3e1b7ad3	0.15183572
80	0x3daa1f3f	0.08306741
81	0x3bbff554	0.005858103
82	0xbbab4e90	-0.0052278712
83	0xbcae6c52	-0.021291886
84	0xbcf09c1f	-0.02937132
85	0x3b81f6fa	0.0039662095
86	0xbdfae152	-0.12250008
87	0xbc455d55	-0.012046178
88	0xbd91f50c	-0.07126817
89	0xbd11c42d	-0.03558748
90	0xbd4ffb9d	-0.050777066
91	0x3da6f09f	0.081513636
92	0x3d16db4d	0.036830235
93	0xbc92fce6	-0.017942857
94	0xbd212f2f	-0.03935164
95	0xbd5e6172	-0.05429215
96	0x3cedaf2a	0.029014189
97	0x3d61c44f	0.055118855
98	0xbcede4f4	-0.029039837
99	0x3d620f82	0.05519057
100	0x3d7adc80	0.06124544
101	0x3e2b181d	0.16708417
102	0x3bc53aad	0.0060189576
103	0xbc75e778	-0.0150088
104	0xbd75bdc3	-0.059995424
105	0x3b606633	0.0034240603
106	0xbc8b1d28	-0.016981676
107	0xbdb045b1	-0.086070426
108	0x3ceec9b3	0.029148912
109	0xbcd5d264	-0.026101299
110	0x3dd4084a	0.103531435
111	0xbc9e260d	-0.019305253
112	0x3cab587e	0.02091622
113	0xbd82f2e9	-0.06393988
114	0x3e13f07b	0.14447205
115	0xbe0df24a	-0.13861957
116	0xbc832d84	-0.016012914
117	0xbdb4257d	-0.08796213
118	0x3da52edc	0.08065578
119	0x3d87847e	0.06617068
120	0x3d915fc6	0.070983455
121	0xbe0477a6	-0.12936267
122	0x3d9b21e7	0.07574826
123	0x3e21c934	0.15799409
124	0xbc9c089a	-0.01904707
125	0x3d3cd715	0.046103556
126	0x3d5a5148	0.053300172
127	0xbbe1b675	-0.0068882057
128	0x3e351ecd	0.17687531
129	0xbe2d6194	-0.16931754
130	0xbe0b9bb1	-0.1363361
131	0x3caa7582	0.020807985
132	0xbd4adbb0	-0.049525917
133	0xbdd4da34	-0.103931814
134	0xbe43defa	-0.19128028
135	0x3dca270b	0.09870728
136	0xbdb25576	-0.08707707
137	0x3d919842	0.07109119
138	0xbe20582c	-0.15658635
139	0x3d12bc7d	0.035824288
140	0xbde60a6d	-0.11232457
141	0x3dd12f85	0.10214142
142	0x3e14023b	0.14453976
143	0x3e13e1a5	0.14441545
144	0xbdf21a11	-0.11821378
145	0xbd33033c	-0.043704256
146	0xbd5dae3b	-0.054121237
147	0xbda6e312	-0.08148779
148	0x3c06dac0	0.008230865
149	0x3d93a417	0.07209032
150	0xbdc684d9	-0.096933074
151	0x3dc98ef0	0.09841716
152	0xbd2c5b99	-0.04207954
153	0x3da94c46	0.08266501
154	0xbde960c4	-0.1139541
155	0x3cdcfe05	0.026976595
156	0x3d979ff9	0.07403559
157	0x3d917524	0.07102421
158	0x3de1e658	0.11030263
159	0x3d6ad12d	0.05732839
160	0x3e1cb16c	0.15302056
161	0x3bfdf681	0.007750333
162	0xbc622f9d	-0.013805297
163	0x3e005c2e	0.12535164
164	0x3da08ae4	0.07838991
165	0x3e24d3b8	0.1609639
166	0xbd8aea52	-0.06782974
167	0x3c16d126	0.009205138
168	0xbd9d86d7	-0.07691734
169	0x3df99152	0.12185921
170	0xbdc6a291	-0.09698976
171	0xbe0446e9	-0.12917675
172	0xbd6b0e27	-0.057386544
173	0xbe369bbd	-0.17832847
174	0x3d8b201c	0.06793234
175	0x3d9787e0	0.07398963
176	0x3cb54bd7	0.02213089
177	0xbcc735b5	-0.024317602
178	0x3c6ba6f7	0.014383069
179	0xbdf095a2	-0.1174729
180	0x3d5f0889	0.0544515
181	0x3c913dc4	0.017729647
182	0x3d1559cd	0.036462594
183	0x3dece2a4	0.11566666
184	0x3d0a82bd	0.033816088
185	0xbe149511	-0.1450999
186	0x3da429fc	0.080158204
187	0x3d09b14b	0.033616345
188	0xbd908447	-0.0705648
189	0x3db1f386	0.086890265
190	0x3c1332f4	0.008984316
191	0x3cdfbd3b	0.027311912
192	0x3e117644	0.14205271
193	0xbe0f0bcc	-0.13969344
194	0xbd7678e3	-0.06017388
195	0x3d0a00ce	0.033692174
196	0xbe098112	-0.13428143
197	0xbdc440d5	-0.09582678
198	0xbe22c3c8	-0.15894997
199	0x3ab2a5aa	0.0013629694
200	0xbd1aacc8	-0.037762433
201	0x3cbe363b	0.023219218
202	0xbcdb5d96	-0.026778024
203	0xbdd43fd6	-0.10363738
204	0xbd8361b6	-0.06415121
205	0x3dd29d08	0.102838576
206	0x3db38ef5	0.08767501
207	0x3d34cb11	0.04413897
208	0x3d47b84a	0.048759736
209	0xbd8857bc	-0.06657359
210	0xbd9aa17b	-0.07550331
211	0xbe220776	-0.15823159
212	0x3d938049	0.07202203
213	0xbd8ee0b5	-0.06976453
214	0x3d4742a4	0.048647538
215	0xbd66d5c6	-0.056356214
216	0xbde7456e	-0.112925395
217	0x3dd2aead	0.10287223
218	0x3c92d1c4	0.01792229
219	0x3e027b1e	0.12742278
220	0x3d5a2d30	0.05326575
221	0xbcd14d96	-0.025549691
222	0x3e26d76c	0.16293114
223	0x3da0de9c	0.07854959
224	0x3e18e0d1	0.1492951
225	0x3e1fafb7	0.15594374
226	0xbd7a218f	-0.06106716
227	0x3ddff1a1	0.10934759
228	0x3af7f269	0.0018916848
229	0x3d7b5243	0.061357748
230	0xbdddc0f0	-0.108278155
231	0xbc8c4e22	-0.0171271
232	0x3daf01e1	0.0854528
233	0x3dc8af9e	0.09799121
234	0xbd5566f5	-0.05210014
235	0x3d238695	0.03992327
236	0x3b551ff2	0.0032520262
237	0xbdcd72c5	-0.10031656
238	0x3bde8790	0.0067910627
239	0x3d5cd316	0.053912245
240	0x3d59006b	0.052978914
241	0x3cbeb7a0	0.023280919
242	0x3d3c806f	0.04602092
243	0xbd9df0be	-0.077119336
244	0xbce9fed2	-0.02856389
245	0xbc5d659a	-0.013512993
246	0x3e3de145	0.18542965
247	0x3e1d0b74	0.153364
248	0x3c4704e6	0.012147164
249	0xbe329ba1	-0.1744218
250	0x3b740e57	0.0037239993
251	0x3d56e9de	0.052469127
252	0xbd8b5202	-0.06802751
253	0x3d930f40	0.07180643
254	0x3d289836	0.041160785
255	0x3c60c09d	0.013717798

mean_net.4.bias f4 [6]
0	0x3db5b485	0.08872322
1	0x3d3ba283	0.04580928
2	0xbc7715d2	-0.015080886
3	0xbd820c72	-0.0635003
4	0x3e8e0e95	0.277455
5	0xbb4d8d46	-0.0031364723
