ResidualMPC/bc_policies/bc_policy_HalfCheetah-v5.pt (torch, 23662 bytes, 7 tensors)

logstd f4 [6]
000000 d7 36 4d bf 7f c2 4c bf 62 a5 4d bf 8c 56 4e bf
       -0.80161804 -0.7998428 -0.8033048 -0.8060081
000010 d9 88 53 bf c4 63 52 bf
       -0.8263069 -0.8218348

mean_net.0.weight f4 [64, 6]
000000 23 cd 31 3e e7 68 07 be 95 d9 7d bd 61 95 28 3e
       0.1736341 -0.13223611 -0.06197508 0.16463234
000010 80 12 c6 be a2 f8 7c 3e 19 7c 81 bd c6 3b 8b 3e
       -0.3868599 0.24704221 -0.06322498 0.2719404
000020 c9 de 68 3d 23 1c 78 bd c9 9e 07 3e f8 0c 4f 3d
       0.05685309 -0.06057371 0.13244165 0.050549477
000030 b4 9c 16 3e 7d 3c 94 bd d5 75 e5 3c 99 35 22 bd
       0.14708215 -0.072381 0.028010288 -0.039601896
000040 21 29 bb 3c 7b 6a 51 3d 82 9d c5 3e 08 71 a5 3d
       0.02284676 0.05112694 0.3859673 0.080781996
000050 d4 2e 2d be 97 5b 48 be 1c a5 f0 bd 85 a9 29 be
       -0.16912395 -0.19566189 -0.11750242 -0.16568573
000060 c1 65 4c bd 68 58 a6 bd 05 31 10 3f db 90 b9 3e
       -0.049901728 -0.08122331 0.563248 0.36243328
000070 7d 84 b8 be 6d e3 99 3e 96 ca 60 3c ab 76 b1 3e
       -0.3603858 0.30056325 0.013720175 0.3466085
000080 cc 84 1b 3f 5f 8e 28 bf 4b 4a 20 bf 09 d4 87 be
       0.60749507 -0.6584224 -0.6261336 -0.26528957
000090 ad 1b ae 3e 54 ee 98 bd e5 af 3a 3e fc 03 55 bc
       0.3400549 -0.074673325 0.18231161 -0.013001438
0000a0 15 15 ec 3e 6b f7 1f be ff 64 8d 3e ba b3 1a 3e
       0.46109834 -0.15621726 0.27616116 0.15107623
0000b0 aa 27 57 bd c6 e0 94 3e a2 64 91 bd e7 01 ab 3d
       -0.05252806 0.2907774 -0.07099272 0.08349972
0000c0 4a 5f 40 bc e2 a1 10 bd 71 eb 05 bf 43 52 b3 bd
       -0.011741469 -0.035310633 -0.5231238 -0.087559246
0000d0 82 c8 aa 3e dd 04 a9 bd 5c bb a6 3e 29 f9 c0 3e
       0.333561 -0.08252881 0.3256482 0.37690094
0000e0 33 41 37 be b6 b1 73 be bd 4a 92 3e ce de b7 3d
       -0.17895965 -0.2379826 0.28572646 0.089780435
0000f0 78 02 7c be 02 cd c9 3e f0 7d d6 3c 9b 2b ad 3e
       -0.24610317 0.3941422 0.026183099 0.3382233
000100 f5 48 29 be aa 97 29 be 01 93 a1 3b e6 bf 80 3d
       -0.16531737 -0.16561761 0.0049308543 0.06286602
000110 95 dc bb be 0b 5e 1a be 74 7a bf 3e 7e 74 02 be
       -0.36691728 -0.15074937 0.37398112 -0.1273975
000120 df c8 49 3e 47 0a e4 3d f0 5e 9e 3e a2 3c f6 3d
       0.19705532 0.11134773 0.30931807 0.120232835
000130 8f 21 23 3e 44 88 7f 3e d0 b0 e0 be bb 37 9d 3d
       0.1593077 0.24954325 -0.43884897 0.07676645
000140 08 12 ad be e0 b4 b0 be e8 03 06 bd d6 46 66 bd
       -0.3380282 -0.34512997 -0.03271857 -0.0562199
000150 49 42 1d 3e 6e 84 58 be ff e0 a6 be ac 68 a8 3e
       0.15357317 -0.21144268 -0.32593533 0.32892358
000160 9d e0 21 3e 04 19 11 3e 43 6c c4 3d 33 09 58 be
       0.1580834 0.14169699 0.09590962 -0.21097259
000170 dc dc 30 3c 61 65 a6 3d 99 7c 8f be 3f 73 28 be
       0.0107948445 0.08124805 -0.28024748 -0.16450213
000180 9c a9 2a 3e 50 35 ae 3d 47 38 94 be d3 6e 45 bd
       0.16666263 0.08506262 -0.28949186 -0.048201393
000190 01 a7 8c 3e 98 38 da bb c5 28 6b 3e 5e 47 86 3e
       0.27471164 -0.0066595785 0.22964771 0.26226324
0001a0 96 70 76 be 6d cb ae be 72 c0 b8 3e 04 df a1 3c
       -0.24066386 -0.34139577 0.36084324 0.019759662
0001b0 71 3f 6e 3d a2 84 e8 ba c1 30 8e 3e 36 b9 9f 3e
       0.05816597 -0.0017739723 0.2777157 0.31195992
0001c0 54 be 0d 3f f9 11 99 be 9c c4 0a 3c ec 1e c7 3e
       0.5536854 -0.29896525 0.008469727 0.3889078
0001d0 ef 72 7f 3d 27 31 42 3d cf cd 97 be 81 8f c9 be
       0.06236547 0.047410157 -0.29649207 -0.39367297
0001e0 c2 88 73 be 22 14 7e bd f4 99 82 3e ef 5f b5 be
       -0.23782638 -0.06203092 0.25508082 -0.35424754
0001f0 a8 f8 e3 3d 9b b8 4a be eb 94 c6 be 6b fa 60 bd
       0.11131412 -0.19796984 -0.3878549 -0.054926317
000200 f1 ed 62 3e 04 b8 9a 3e 3e 3d 89 be 04 47 83 3d
       0.2216108 0.30218518 -0.26804537 0.064100295
000210 50 ed b4 3e 93 21 64 3e 06 35 b3 3d 4c 36 ae 3e
       0.35337305 0.22278433 0.08750348 0.340258
000220 12 7b 8e 3e 41 26 2a 3d 68 70 81 be fc cc a3 be
       0.2782827 0.041540388 -0.25281072 -0.31992328
000230 bc 0c f2 bd cb 23 06 bd 6f 41 80 be 64 e4 35 3e
       -0.11818835 -0.03274898 -0.25049922 0.17762905
000240 3e 30 6a 3d 3c ee cf bc d4 94 e9 3c 6d d6 27 3e
       0.057174914 -0.025382154 0.02851335 0.1639039
000250 42 db 2c 3e 03 ac b0 3e 1f da c8 bd cb ae af 3e
       0.16880515 0.34506235 -0.09807228 0.34313044
000260 d4 cd d2 bd 91 c2 16 bc 54 49 ac be 6c 59 c2 be
       -0.10293165 -0.009201662 -0.33649695 -0.37958848
000270 e6 91 4d be b7 60 fe bd 09 0b 9e 3e 9f 63 da bd
       -0.20075187 -0.12420791 0.30867794 -0.106635325
000280 f2 a4 ad be 91 ca 30 3e c6 9b 0c 3e 7d 4d 43 3e
       -0.33914906 0.17264773 0.13731298 0.19072528
000290 8e 88 18 3e c6 28 cc 3d 00 9b 02 be 6a 70 ba bd
       0.14895841 0.099687144 -0.1275444 -0.091034725
0002a0 f4 ed a5 be ed d9 73 be 0e 41 40 be 9e 2c 8b 3e
       -0.32408106 -0.23813601 -0.18774816 0.27182478
0002b0 62 ae d0 3d cb bb 43 3d b9 b1 c4 3e 27 dd 06 3f
       0.10189511 0.047786515 0.38416842 0.526812
0002c0 32 b2 88 3d 0f 54 e4 3d 79 18 a5 be 1b 34 91 3e
       0.06674613 0.111488454 -0.32245234 0.28360066
0002d0 0e 1d 58 bd 0c 7c 29 3c 90 9c fd be 23 0d ae be
       -0.052762084 0.0103445165 -0.4953351 -0.33994398
0002e0 34 01 a6 be 6c d2 8f 3e b6 f6 dd be ae 91 5c be
       -0.32422793 0.28090227 -0.43352288 -0.21539947
0002f0 b5 4f 4f bd 6d fc 3b be 1a e0 22 3e c8 0e a8 bd
       -0.050613124 -0.18358012 0.159058 -0.08205944
000300 a3 3c 48 be 47 65 b2 bd 11 94 05 3d 41 92 b3 be
       -0.19554381 -0.08710723 0.03261191 -0.3507252
000310 01 92 5b 3e 46 25 49 3e 39 d4 b5 3e 97 d1 3b be
       0.21442415 0.19643125 0.35513476 -0.18341671
000320 36 87 62 3e 4c 31 b0 be a4 3b a6 3e d8 1b ce bd
       0.22121891 -0.3441261 0.32467377 -0.100639045
000330 27 ac 82 3e d4 bc de 3d 5a 7d 95 3d 7b 64 a3 3b
       0.25521967 0.1087586 0.072992995 0.0049863434
000340 dd c2 89 3d 94 e4 72 3e e3 a7 d4 bb 90 e2 de 3c
       0.0672662 0.23720008 -0.00648974 0.027207643
000350 84 eb d0 be 45 dd e6 3e 86 aa b9 3e 98 bf ec 3e
       -0.40804684 0.4509069 0.36262912 0.46239924
000360 46 6a af 3e d8 66 86 be 59 76 a6 be 68 0c da 3e
       0.34260768 -0.2625034 -0.32512167 0.4258759
000370 98 fc c6 be d9 e5 97 3e 69 af a1 be d7 14 a3 be
       -0.3886459 0.29667547 -0.3157914 -0.31851837
000380 27 d7 9c 3e e8 2b e2 be 28 1d 0a bd 7b 57 88 3e
       0.30632898 -0.44174123 -0.03371921 0.26629242
000390 bd 2a 9e 3e b5 14 a3 3e ae 72 87 3e d6 22 f3 bd
       0.30891982 0.31851736 0.2645468 -0.11871879
0003a0 a6 34 d5 3e 53 1f 30 3d f0 78 0e be 70 c9 8b 3d
       0.4164173 0.042998623 -0.13913321 0.068255305
0003b0 88 69 01 bf a6 36 97 3e 8c 49 69 3e 23 e7 78 be
       -0.5055165 0.2953388 0.22781962 -0.24306922
0003c0 d9 78 9c be 34 63 a3 bd ea e5 f8 bc 11 35 08 bd
       -0.3056095 -0.07977906 -0.030383069 -0.033253733
0003d0 66 ab 70 be 23 00 b1 3c df f5 cd be d1 9a df be
       -0.23502883 0.02160651 -0.40226647 -0.43672803
0003e0 5a e1 c5 bd 3a 81 9c 3e d6 7f c9 3e 17 13 1c be
       -0.09662123 0.30567342 0.39355344 -0.15241657
0003f0 f2 00 db 3b 3a d6 62 3e b0 30 39 3e 62 6a c2 be
       0.0066834623 0.22152033 0.18084979 -0.3797179

mean_net.0.bias f4 [64]
000000 7c fe 65 be 3d 60 a1 3e f9 b1 68 3e 79 cf 83 3d
       -0.2246036 0.31518736 0.22724141 0.06436057
000010 4c b6 dc bd ca 8c fd bd 58 09 8e 3d 61 60 ee 3e
       -0.10776958 -0.12380369 0.06935376 0.46557906
000020 40 d9 3d 3d be d5 35 be f3 c8 f0 3e 1a 12 d6 3b
       0.046349764 -0.17757317 0.47028312 0.0065329196
000030 fb f0 d7 3e 5a c6 94 bc f6 6e c9 3e ea 0a 9e 3e
       0.4217604 -0.018160988 0.3934247 0.30867702
000040 48 f7 5d be 13 c3 bb 3e a3 95 0e bd 2b a3 95 be
       -0.21676362 0.36672267 -0.034810673 -0.2922605
000050 88 0a 59 be 41 f3 ad be bc 65 8e be 12 02 85 be
       -0.21195424 -0.3397465 -0.27811992 -0.25978142
000060 ef dc 98 3e 98 95 08 be 9e 0a bc bc c8 e0 41 3e
       0.2985606 -0.13338315 -0.022954281 0.18933403
000070 e1 be df 3d 12 3f 3f be 24 5a 24 3e 41 e3 87 3e
       0.10925079 -0.18676403 0.16050011 0.26540568
000080 ce d9 f0 be 79 2e ec 3e 0d f5 1c be ae d3 7e be
       -0.47041172 0.46129206 -0.15327854 -0.24885437
000090 b4 cf aa be e1 a0 b8 3e 1e e0 d3 3d 9c 83 90 3e
       -0.3336159 0.3606024 0.10345481 0.2822541
0000a0 84 ea 5d bd 05 48 f9 3d 55 95 b5 bd d8 7e 9c be
       -0.05417873 0.1217194 -0.088663734 -0.30565524
0000b0 04 a0 79 3d 7a 67 3b 3d fa a5 60 bd 5c 0d db bd
       0.06094362 0.04575298 -0.054845788 -0.106959075
0000c0 45 44 cb 3c d5 3c 20 3e f0 92 3e 3e 82 42 7f be
       0.024812827 0.15648206 0.1861074 -0.24927714
0000d0 27 fb 6b 3d 34 12 29 3e b1 a6 b1 3e 08 1f d3 3e
       0.057612564 0.1651085 0.34697488 0.41234612
0000e0 64 85 bb be 37 7f 9f 3e a9 66 06 bf ca bf 96 3e
       -0.36625206 0.31151745 -0.52500397 0.29443198
0000f0 43 03 ee bd 6a e2 a9 3d 13 8e 5d be 7c a7 97 3e
       -0.11621716 0.08295138 -0.21636228 0.29619968

mean_net.2.weight f4 [64, 64]
000000 92 89 4b bd 56 9c 13 be 73 b5 2f 3d ef 21 99 3d
       -0.049691744 -0.14415106 0.042897653 0.074771754
000010 59 cb 03 3e 7d a4 aa bd fe 98 fa 3d 10 b6 95 3d
       0.1287054 -0.08332155 0.12236212 0.07310116
000020 d9 00 b0 bd 56 58 b4 bd b1 c7 52 3d 67 6c 2e bd
       -0.08593912 -0.08805911 0.05145997 -0.04258385
000030 b7 ff 39 3d 77 63 e5 bd af 58 ac 3d d1 66 1e 3d
       0.045409884 -0.11200612 0.084153526 0.038672272
000040 b5 cf 07 3c b2 dd 4e 3d 6c 0c 9c bd 78 0b 6c bc
       0.008289267 0.050504394 -0.07619557 -0.014407031
000050 87 7e 1a bb 14 ab 8b bd 2a 22 c2 bc e4 b7 4a bd
       -0.0023573951 -0.0681974 -0.023697931 -0.049491778
000060 c6 c6 e1 3d e0 b7 d3 3d 9f a4 d7 3d a8 80 c2 3d
       0.11024241 0.10337806 0.10529446 0.094971955
000070 a2 ac 07 be d2 ac 70 3d 4a b3 83 3a c0 77 d2 bd
       -0.13249448 0.058758564 0.0010047939 -0.10276747
000080 24 9e 6b 3d 6b 1e 8d bd fd b0 00 3d c7 48 a0 3d
       0.05752386 -0.068905674 0.03141879 0.07826381
000090 1b 4a 00 3e 2a 3a a4 bd b8 56 d0 bd 31 ec e9 3d
       0.12528269 -0.080189064 -0.1017279 0.11422003
0000a0 98 97 43 3d dc bf 28 3d 31 90 ad 3a 25 4a d9 bd
       0.047751993 0.041198596 0.0013241825 -0.10609845
0000b0 91 41 06 3e 73 59 d3 bd 2a 62 68 3c a0 56 99 3d
       0.13110949 -0.103197955 0.01418356 0.074872255
0000c0 dc 5d 93 3d ef 74 0c be b2 f8 e1 bd aa c9 26 3d
       0.07195637 -0.13716482 -0.11033763 0.040719666
0000d0 65 08 e9 bd 48 41 d1 bd 7e 01 eb bd 44 0c 90 bd
       -0.11378554 -0.102175295 -0.11474894 -0.070335895
0000e0 a3 76 1b bc c5 2a c6 bd 6e fd 27 bd cf 40 f7 bd
       -0.009488734 -0.096761264 -0.041013174 -0.12072908
0000f0 90 9a 9c 3d ed 23 2b bd bc 47 1c be 63 e2 c5 3c
       0.07646668 -0.04178231 -0.1526174 0.024155801
000100 db e9 b4 bd 6e 43 94 3d 26 ac 97 3d ad 6b f7 bd
       -0.08833667 0.07239424 0.074058816 -0.120810844
000110 47 96 b6 bd f1 e3 9c bd e4 c8 83 bd 36 bf a7 3c
       -0.08915382 -0.07660664 -0.06434801 0.020476919
000120 62 83 0b be 45 e4 b3 bd 0d f2 81 3d 56 c7 86 bd
       -0.13624337 -0.08783773 0.06344996 -0.06580989
000130 cc ee 36 bd 92 71 da bd 92 ca 5b 3d 7d 21 4d 3c
       -0.04466133 -0.10666193 0.053659983 0.012520191
000140 a3 c2 60 bd a6 05 97 bd 9e 32 0c 3d bb a1 4c 3d
       -0.05487312 -0.07374124 0.03422796 0.049958926
000150 53 e4 51 3d b0 a7 06 3d d6 48 8c bc 0f 43 cb bd
       0.051243138 0.032874763 -0.017124575 -0.099249
000160 12 02 ab 3d 47 0c 8d bb b7 56 a6 bd 38 ea df 3d
       0.08350004 -0.004304442 -0.08122008 0.109333456
000170 f5 de 87 3d c6 2d b8 bd a3 80 9d bd f9 85 3f bd
       0.066343226 -0.089931056 -0.07690551 -0.046758626
000180 cb 92 93 bd 42 1d 83 3d 8a 36 b1 bd 14 87 e4 3d
       -0.07205733 0.06402065 -0.086529806 0.111585766
000190 a9 70 4d bd 41 1b a1 3d 0b b0 02 3c ae a1 89 bd
       -0.05015627 0.078665264 0.007976542 -0.06720291
0001a0 a3 3d a6 3d cc 24 d4 bd 00 1f d1 bd a6 ab 04 3d
       0.08117225 -0.10358581 -0.10210991 0.03239026
0001b0 b7 f6 af 3d de b4 5a bd cb 66 a2 bd 18 e1 92 bd
       0.08591979 -0.053395145 -0.079297625 -0.071718395
0001c0 2c 7b 7b bd 71 b1 6f bd 01 d7 1f bd fb 4f a0 bd
       -0.061396763 -0.05851883 -0.039023403 -0.07827755
0001d0 c9 ad 2a 3d 36 43 00 3b 6f e8 a1 bd ff 4e 88 bd
       0.04166964 0.001957131 -0.07905661 -0.06655692
0001e0 69 52 be 3c ec 9b a4 bb d1 44 aa 3d fb 2c 6b bc
       0.023232656 -0.00502347 0.08313907 -0.014353986
0001f0 87 0a d4 bd 70 4e be bd f1 c7 b5 3a 8c cb d7 bc
       -0.103535704 -0.092923045 0.0013868791 -0.026342176
000200 26 c5 b7 3c cf 43 2e bd 80 95 57 3d 1e 32 11 bd
       0.022432875 -0.042545136 0.05263281 -0.035448186
000210 f9 25 be 3d 86 06 24 3d 53 0a ff bc 60 fd f2 3d
       0.092845865 0.040045284 -0.031132853 0.11864734
000220 79 73 ca 3c 52 44 9c bd ac 3b 95 bd 4d 06 7d 3d
       0.024713265 -0.076302186 -0.07286772 0.061773587
000230 1c ef 85 3d 75 f9 bb 3d 23 ca 30 bb 3c 59 c0 3d
       0.06539747 0.091784395 -0.0026975952 0.0939202
000240 f1 ea 84 3d ae 51 41 3d 71 7f df bc 34 c6 0a 3e
       0.06490124 0.047197036 -0.027282448 0.13552171
000250 14 09 94 3c 70 de 28 bd 10 e1 62 3b 4e 28 ec 3d
       0.018070735 -0.041227758 0.003461901 0.11531125
000260 68 8d be 3d d0 da 8b bc 99 2c ef 3d 6c 60 7c 3d
       0.09304315 -0.017072111 0.11678428 0.061615393
000270 07 2b 94 bd 30 91 d7 bd ff c2 96 3d a8 d7 e2 3d
       -0.07234769 -0.10525739 0.07361411 0.110762894
000280 00 fc 9e bd 30 67 75 3d 04 79 43 3c e4 4a ed bc
       -0.07762909 0.05991286 0.011930708 -0.028966375
000290 83 e4 f1 bc bd e4 06 3d 6b 11 13 3d bb 9c 90 3d
       -0.029527908 0.032932986 0.035905283 0.07061144
0002a0 f3 c1 20 3d a9 fd 48 3d 66 92 bd 3d d5 ad 80 3d
       0.039247464 0.049070034 0.09256439 0.06283156
0002b0 f4 65 89 3b 8b 7e 26 bd 11 6f ae 3d 97 fd df 3c
       0.004193062 -0.040648025 0.08517278 0.0273426
0002c0 05 1d 95 3d f3 ab 08 3e d5 60 25 bd 89 7b a2 3d
       0.07280926 0.13346843 -0.04037555 0.07933719
0002d0 7a d7 ec bc cc 2b f2 3d 5c f7 d6 3d b5 c3 18 bd
       -0.028911341 0.1182476 0.10496399 -0.037296016
0002e0 2f f0 93 bb 77 ed 73 bd 20 d2 71 bd cc 05 90 bc
       -0.004514716 -0.059552636 -0.05903828 -0.01758089
0002f0 14 76 e2 bb 19 d9 48 bd ea ea 81 bd 57 61 8a bd
       -0.0069110487 -0.049035165 -0.063436344 -0.06756847
000300 4a b5 6f 3b 7a 84 17 bd 6a a5 f3 3d 64 ae fe 3d
       0.0036576563 -0.036991574 0.118967846 0.12435606
000310 25 5e 68 3d 18 49 3e 3d a7 a3 a2 bd 55 d9 1c 3e
       0.05673041 0.046456426 -0.079413705 0.1531728
000320 22 9e ce bd 5d a8 bf bc 77 10 a3 bd 38 4e f7 3c
       -0.10088755 -0.023395712 -0.07962125 0.030188665
000330 ea dd 8a bd ca ce a8 bd ee dd 36 bd e0 f4 59 bd
       -0.06780608 -0.08242567 -0.044645242 -0.053212047
000340 d8 1f 57 bd e2 1c 22 3e 49 40 ae 3b 24 56 08 3d
       -0.052520603 0.1583133 0.005317722 0.033285275
000350 fd ba 1a be f4 dc 9d 3d cc 18 5a bc 1a 56 17 be
       -0.15110393 0.07708159 -0.013311576 -0.14778939
000360 e5 11 f2 3d 4c 45 4b bd 87 17 b9 3d 50 5b 4a bd
       0.11819819 -0.049626634 0.090376906 -0.04940349
000370 8a 36 06 be 18 6a ac bd 43 54 86 3d 16 ee e5 bc
       -0.13106743 -0.08418673 0.065590404 -0.02806763
000380 06 fd 1b be 8e bf 62 3d fe f7 ae 3b 9a 7b 99 3d
       -0.1523324 0.055358462 0.0053396216 0.07494278
000390 5d 37 6e bd f7 cc c8 bd 92 37 ea 3d 42 3c 8d bd
       -0.058158267 -0.09804719 0.114363804 -0.06896259
0003a0 09 37 84 3d 03 79 c2 3d 05 98 dd bd 64 63 8b ba
       0.064558096 0.094957374 -0.10820011 -0.0010634479
0003b0 6e ff 07 bd bf 57 ba bd 53 a6 74 3c 1c 52 33 bd
       -0.03320258 -0.090987675 0.014932233 -0.043779477
0003c0 12 13 99 bd 1c 54 98 bd 1c d8 07 3d af 94 c7 bd
       -0.074743405 -0.074379176 0.033165082 -0.09745156
0003d0 4e 8e f2 bd c0 17 76 bb cd d0 1e bd dd 87 ad bd
       -0.11843549 -0.0037550777 -0.038773347 -0.084731795
0003e0 b5 9e 41 3c cd 4b 35 bd 0c 10 41 3d d9 db fb 3d
       0.011817624 -0.044261742 0.047134444 0.12297792
0003f0 38 b8 e2 bd 13 4b b7 bd 88 70 e7 3b d7 5b e0 3d
       -0.11070293 -0.08949866 0.0070629753 0.10955017

mean_net.2.bias f4 [64]
000000 4c 52 0b be 00 6a b7 3d 44 c9 c2 bd 3d 73 0c 3e
       -0.13605613 0.08955765 -0.095110446 0.13715835
000010 33 1b b6 3d b9 fa 00 3c 47 b5 f3 3d 41 e0 32 be
       0.088919066 0.007872277 0.1189981 -0.17468359
000020 8c 16 ef 3d b7 82 e8 3d f4 b6 24 3e d6 41 10 3d
       0.11674222 0.11353057 0.16085416 0.035219036
000030 0b 2e c7 3d 8e 76 ca bd dd e4 6e bb cd 45 45 3d
       0.09725579 -0.09885894 -0.003645233 0.04816227
000040 88 3b 95 3c f9 09 8b 3d 79 2c a3 3d f1 ff c4 3d
       0.018216863 0.067890115 0.07967467 0.096191294
000050 b9 5d b6 bd 5a 05 a6 3c f5 79 c1 bd 22 24 1f 3d
       -0.08904595 0.020266224 -0.094470896 0.03885282
000060 ca 7c 8d 3d 06 dc 9d bd b3 4d d6 bb 12 81 eb bd
       0.06908567 -0.07707982 -0.006540024 -0.114992276
000070 66 7b 15 3e a9 1e fa 3b 07 69 19 bd a3 b9 64 bc
       0.14597854 0.0076330495 -0.037453678 -0.013960275
000080 c0 91 96 bc 79 a2 af bd 84 dd 9f bd 5d f9 11 be
       -0.018380046 -0.08575911 -0.078059226 -0.14255281
000090 81 38 da 3d 35 48 b7 3d f4 81 32 3d b8 0f 69 bd
       0.106553085 0.08949319 0.043580964 -0.056899756
0000a0 65 6c 1d bd e5 78 06 3e 4f 5b 8d bd f3 21 b6 bd
       -0.03843345 0.13132055 -0.06902181 -0.08893194
0000b0 d5 78 b0 3d 64 b7 94 3d 88 2a f6 3d 02 5b 59 ba
       0.08616797 0.072615415 0.12019831 -0.0008291454
0000c0 b5 d5 34 bd a0 2a ce bd 32 d5 99 bb 35 ae 99 3d
       -0.04414912 -0.10066724 -0.0046946043 0.075039305
0000d0 ad 53 a1 bd 07 d4 70 bd c1 91 0e 3d 31 f2 af bd
       -0.07877288 -0.058795955 0.03480697 -0.08591116
0000e0 b2 61 02 3d eb 8a 03 be 37 40 e9 bc ce 13 b6 3c
       0.03183145 -0.12845962 -0.028473003 0.02222624
0000f0 03 56 44 3d b5 07 ac bc e5 ce 99 3d 53 79 60 3d
       0.04793359 -0.020999769 0.07510165 0.054803204

mean_net.4.weight f4 [6, 64]
000000 c5 ac 96 3d 03 96 84 3d 03 0e aa 3d f6 54 f1 3c
       0.07357172 0.06473925 0.08303454 0.029459458
000010 45 0c ba 3d b2 40 85 3c c6 f4 d2 bd c2 4f 9f bd
       0.090843715 0.0162662 -0.10300593 -0.077788845
000020 81 13 c6 3d ba ff 0b 3e 31 2e 43 bd da 19 75 3d
       0.09671689 0.1367177 -0.047651473 0.059839107
000030 61 99 bb 3d 16 66 c3 bd 8a 17 d3 bc 24 86 c6 3d
       0.09160114 -0.09540956 -0.02576806 0.09693554
000040 cf 17 c3 bc 66 fa 01 3d 6c 5a f6 3c 78 09 13 3d
       -0.023815064 0.03173294 0.030072413 0.035897702
000050 5d 0a 13 3e 16 88 00 3e 5d 09 bc bd b8 93 c7 3c
       0.14359422 0.12551913 -0.091814734 0.02436243
000060 e0 96 35 3d 95 30 30 3d 85 a4 26 bd a5 b8 79 3d
       0.04433334 0.04301508 -0.04068424 0.060967106
000070 a0 02 cc bc 3e f7 89 3d 71 a8 6f 3d 04 d5 9d 3d
       -0.024903595 0.06736611 0.058510248 0.07706645
000080 30 16 b4 bc be ef 0c bd 94 c5 d7 3d 2e 3f d6 3d
       -0.021983236 -0.034408323 0.10535732 0.10461269
000090 bd 5a 7d 3d 78 73 cb bd 88 5e b1 3c 40 bd 0b 3c
       0.061854113 -0.09934133 0.021651521 0.008529007
0000a0 47 e5 11 be ca 92 fc bd 79 79 ad 3c dc 2a 6d bc
       -0.14247619 -0.12332685 0.021176087 -0.0144755505
0000b0 9f c5 c6 3d 66 3b 24 3d b8 e6 a4 bd db fb c0 bc
       0.09705662 0.04009571 -0.080518186 -0.023557594
0000c0 f0 62 95 3d ee 7d 8a 3c 1d b1 af 3d 27 91 8e 3d
       0.072942615 0.016905751 0.085787036 0.06961279
0000d0 60 8f ab 3d a7 ad d5 3d c1 e4 c5 bd bd de 17 3d
       0.08376956 0.10433512 -0.09662772 0.037077654
0000e0 4c 7e 8d bd 92 6d ab bc fb 62 bb 3c cd da 5d 3d
       -0.06908855 -0.02092627 0.022874346 0.054163743
0000f0 09 04 45 bb b8 a0 79 3d d6 16 c3 3d 7f 26 88 3c
       -0.003006222 0.06094429 0.0952584 0.016619919
000100 d8 8b 69 bc 85 f2 6d bd 4d 25 12 bd bb 54 0f 3c
       -0.014254533 -0.058092613 -0.035680104 0.008748229
000110 2c cb b2 3c 78 ad b3 bd dd 0f d3 bd 3d 1d 81 bd
       0.021825396 -0.08773321 -0.1030576 -0.06304405
000120 d3 18 c3 3d c1 1e 0f 3a 23 98 dd bd ba 89 f1 bd
       0.09526219 0.00054596 -0.108200334 -0.117938474
000130 50 54 8c bd 02 df d9 bd ae 44 b6 3d 8b 8f b6 3d
       -0.06852019 -0.106382385 0.08899818 0.089140974
000140 a9 85 8a bc 60 51 e1 3c d0 d9 33 bc 01 24 71 bd
       -0.016909437 0.027504623 -0.0109772235 -0.058872227
000150 f8 a6 9d ba 51 00 25 bc c2 5c f8 bc 62 91 91 3d
       -0.001202791 -0.010070876 -0.030317668 0.07107808
000160 e1 c3 23 3d 15 42 f7 3d 62 a6 07 3d 75 9b c9 3d
       0.039981727 0.12073151 0.03311766 0.09844104
000170 21 01 77 3c 95 6e 0f 3d e5 37 74 3d c3 6d 8c bd
       0.015075953 0.03501757 0.059623618 -0.06856873
000180 61 b8 30 3d bb 31 44 3c 17 d3 26 3b 0a 1a c4 bd
       0.043144587 0.011974747 0.002545541 -0.09575279
000190 f5 60 70 3d 18 3f 51 3d ef 06 85 bd ab 28 fa bc
       0.058686215 0.05108556 -0.06495463 -0.03053697
0001a0 6d a7 d8 bd a1 9f 04 3c 50 07 6c bd 7c f5 dc 3c
       -0.10578809 0.008094699 -0.05762416 0.026972525
0001b0 ab 3a a8 3d 14 65 56 bc 89 58 42 3d 14 8e 15 bd
       0.08214315 -0.013085622 0.047447715 -0.03651245
0001c0 96 27 32 3d 5c 14 05 3d e5 0b ad 3d 68 07 ed bc
       0.043494783 0.03249012 0.08449534 -0.028934196
0001d0 8e c7 2a bc ca bf e7 bd 6a 23 ba 3d a1 d7 ed bc
       -0.010423554 -0.11315878 0.09088786 -0.029033484
0001e0 9d 7e d9 3c a0 f2 b4 bd 0e 22 43 bd b4 0b 5b 3d
       0.026549632 -0.088353395 -0.0476399 0.053477958
0001f0 12 31 a3 bd 43 e2 99 3c be 98 63 3d 89 ad a0 3d
       -0.07968344 0.018784648 0.05556559 0.07845599
000200 42 7e b0 3d f5 c8 93 bd 96 91 80 bd 21 7a 20 3d
       0.08617832 -0.07216064 -0.06277768 0.03917897
000210 fc 61 52 bc 68 a5 b9 bd c8 cd f2 bd d7 df cb 3d
       -0.012840744 -0.09064752 -0.11855656 0.099548034
000220 40 4f 38 bd c8 57 17 3e 94 0f 9a bd a9 87 6a 3d
       -0.044997454 0.1477958 -0.075225025 0.05725828
000230 50 d8 0e bd 1b c0 ac 3d 4b aa ba 3d 02 5d d4 3d
       -0.03487426 0.08435079 0.09114512 0.10369302
000240 ca f7 9a bd 54 b2 85 bd 0e 6d 3e bd 20 f2 87 bd
       -0.07566793 -0.06528154 -0.04649072 -0.066379786
000250 cd 40 48 3d a0 10 c2 3d b4 ee bd bd e1 4f a9 3d
       0.048889924 0.09475827 -0.09274045 0.08267189
000260 ca 84 83 bc 6f aa e2 3c 26 45 8f bd 5a 07 12 3d
       -0.01605453 0.02766916 -0.06995611 0.035651542
000270 57 0c 35 3d 3f d7 df 3d 76 91 e1 3d 22 f1 cc 3d
       0.04420122 0.10929727 0.110140726 0.1000693
000280 7b 17 e5 3c ae e9 30 bc 68 56 81 3d 15 84 18 3e
       0.027965298 -0.010797901 0.06315309 0.14894135
000290 5c 8a 2e 3d 16 89 a0 3d d3 f6 d4 bd b2 38 04 bb
       0.04261242 0.07838647 -0.103986405 -0.0020175395
0002a0 5a f0 77 bc 48 95 5a 3d ef 5c 0c 3c b8 2d 10 be
       -0.015132988 0.053365022 0.008567079 -0.1407994
0002b0 69 f6 d5 bc 6c c9 a0 bd 12 6e 5e bd 41 9d 57 3d
       -0.026118474 -0.07850918 -0.05430419 0.052640203
0002c0 b6 62 8b ba 7e cb de bc 88 98 5a bd 77 7e bc bd
       -0.0010634277 -0.027196642 -0.05336812 -0.09203809
0002d0 3c a6 c1 3d 5b 3d 84 3d 36 9e 2e be c1 d2 11 3e
       0.09455535 0.06457015 -0.1705254 0.14240552
0002e0 73 a0 99 3c a5 e7 c1 bd 5d d7 f8 3d 07 da ea bc
       0.018753266 -0.09468011 0.12150452 -0.028668417
0002f0 0f ab 90 bc 59 a4 7a 3d 70 ce 3c bd 80 10 b1 3c
       -0.017659692 0.06119189 -0.04609531 0.021614313
000300 1e 15 1e 3e 71 8a 58 3d 64 dd d6 3d 75 2d 8d bd
       0.15437743 0.052866403 0.10491446 -0.06893436
000310 af 70 9b bd c6 75 fb 3c 99 c7 86 3a 27 89 c3 3d
       -0.07589852 0.030695807 0.0010282873 0.09547644
000320 50 15 e2 3d 84 85 c7 3d 0a 67 fd 3c ac 45 99 bd
       0.11039221 0.09742263 0.030932922 -0.07483992
000330 9f 9d e0 bb 41 d1 7d 3c ec 46 77 bd db 5e db bc
       -0.0068547274 0.015491785 -0.06037037 -0.026778629
000340 c6 a4 97 3c fa 79 e2 bd bf 85 bc bc c9 be d2 bd
       0.018511187 -0.110584214 -0.023012994 -0.10290296
000350 65 32 27 3d de fb 1b bd ff c5 19 3d 2a 41 b4 bc
       0.040819544 -0.038081996 0.03754234 -0.022003729
000360 4c f8 5f bd f3 73 2b 3d 50 01 c8 bd 31 cb 72 3d
       -0.054680154 0.041858625 -0.09765875 0.05927581
000370 8d d2 c1 bc ee d9 17 3c 65 93 8e 3d e2 e7 88 3d
       -0.023659969 0.009268267 0.06961707 0.06684853
000380 0f 4a dc 3d a8 d6 96 3d f1 61 81 bc 2c 77 96 bc
       0.10756313 0.07365161 -0.015793772 -0.018367372
000390 ba 21 f0 bd 42 f9 f8 3b ac 1f 02 3d 15 0c ba 3d
       -0.11725183 0.007598073 0.031768486 0.09084336
0003a0 8c 48 5e 3d ec b3 ad bc 76 a6 d6 bd af 98 93 3d
       0.054268405 -0.021203957 -0.10480969 0.072068565
0003b0 d0 78 e0 3c 3f c8 38 bd 47 1a ac bd c5 41 f9 bd
       0.027401358 -0.045112845 -0.084034495 -0.12170748
0003c0 f5 14 6a 3d 4c 7a 3e 3d f3 d5 45 3c 01 bb 99 3d
       0.057148892 0.04650335 0.012074935 0.07506371
0003d0 11 29 8d bd 19 c2 ee 3d a9 61 ba 3d d3 e7 e8 3c
       -0.068925984 0.11658115 0.091006584 0.028430855
0003e0 57 82 0c bd c4 b1 a6 bd 3b fa e4 3c af 29 ee 3c
       -0.03430399 -0.08139375 0.02795135 0.02907261
0003f0 cd 6d 41 3c 96 bc 3c 3d a4 d6 63 bd 69 98 e4 3d
       0.011805964 0.046078287 -0.05562462 0.111618824

mean_net.4.bias f4 [6]
000000 5a 00 59 bd 90 77 21 bd 24 33 e0 bc cf 8d 2f bd
       -0.05297885 -0.039420664 -0.027368136 -0.04285985
000010 3b f9 9e 3d cf ab c8 bc
       0.07762381 -0.024495987
