ResidualMPC/bc_policies/bc_policy_HalfCheetah-v5_1.pt (torch, 23688 bytes, 7 tensors)

logstd f4 [6]
-2.327225 -2.3233259 -2.3384988 -2.349943 -2.3623152 -2.3448653
00000000: 41f1 14c0 5fb1 14c0 f7a9 15c0 7765 16c0
00000010: 2c30 17c0 4612 16c0

mean_net.0.weight f4 [64, 6]
0.19488777 -0.27178133 0.5022458 0.13765769 -0.33589265 0.22171411 -0.035833005 0.34145272
0.108384505 -0.059807636 0.17517099 0.032904394 0.15019965 -0.027327439 0.032200735 -0.013371223
-0.045079272 0.04164716 0.53897154 0.18062979 -0.413996 -0.19359708 -0.19772173 -0.16022095
-0.03255524 -0.18542133 0.7197145 0.45098874 -0.35380638 0.33902857 0.0067365738 0.39372832
0.71451426 -0.71692544 -0.75569844 -0.35278466 0.2947405 -0.059797443 0.77482104 0.17284353
0.42856446 -0.05637619 0.20360366 0.09413673 0.2119007 0.2792908 -0.06480739 0.101617694
-0.00049061864 -0.0010605697 -0.891861 -0.054034807 0.27415508 -0.019134084 0.3726662 0.32745057
0.17015757 -0.24321331 0.29437506 0.2503608 -0.1995987 0.4172489 0.015922919 0.27252924
-0.1849928 -0.16929984 0.00862551 0.13128477 -0.74382854 -0.19428846 0.45732585 -0.090771414
0.21661542 0.18603955 0.51936704 0.25498453 0.14243011 0.23390083 -0.5072604 0.1451952
-0.62086964 -0.25937065 -0.021846244 -0.05938462 0.17208508 -0.23589036 0.015820643 0.2911938
0.21816707 0.20907156 0.066238604 -0.1816193 0.06387595 0.011263196 -0.24421977 -0.16096303
0.1543572 0.015719125 -0.56986475 -0.09859681 0.26437807 -0.0070863017 0.20657 0.30218062
-0.42085534 -0.2220538 0.25721326 -0.025059853 0.016376082 -0.012126661 0.85466874 0.6195543
0.49564847 -0.18556169 0.0020601756 0.44858512 -0.25628778 0.15669714 -0.39811423 -0.37093994
-0.23604523 -0.17563 0.20535603 -0.43162823 0.044628203 -0.1050048 -0.41991878 -0.12711857
-0.017266683 0.34706149 -0.33518407 0.04206272 0.29169106 0.20529808 0.04489616 0.40485358
0.28035706 0.07332278 -0.18752529 -0.29881597 -0.034839865 -0.12801549 -0.259554 0.24451917
0.04281342 0.083931625 -0.028096084 0.13661085 0.13828705 0.32672814 -0.031716265 0.30101275
-0.13653308 0.069803655 -0.4863256 -0.4593672 -0.13868037 -0.15993421 0.4603775 -0.10509387
-0.37385824 0.21702622 0.10493277 0.2605222 0.18086587 0.13617729 -0.19618785 -0.06382795
-0.3552671 -0.19700456 -0.08388327 0.36501384 0.07878791 0.13006313 0.5001108 0.77735096
-0.30672163 0.25590795 -0.4875606 0.33548287 -0.03451777 0.083390415 -1.0035923 -0.37918562
-0.31790864 0.22054815 -0.5688805 -0.23506062 -0.24596013 -0.16680788 0.13742012 -0.11050222
-0.12569167 -0.08814805 -0.42533103 -0.56611264 0.32897317 0.10969272 0.4005155 -0.12471777
0.31979847 -0.29947692 0.3089835 -0.10644286 0.21214442 0.17739715 0.2443583 -0.057608243
0.091162115 0.27297634 -0.0095405625 -0.013789035 -0.24412198 0.50859964 0.47246704 0.41089913
0.2914916 -0.078829736 -0.65129673 0.5117138 -0.46704796 0.3414248 -0.31276748 -0.3343821
0.39430475 -0.29068655 0.03629699 0.22980295 0.42690277 0.512291 -0.12059748 0.16211863
0.30658197 0.05795694 -0.08893624 0.014644925 -0.23531505 0.32287177 0.3036301 -0.27903032
-0.28952765 -0.08890694 0.16797331 0.026766354 -0.19044064 0.012088386 -0.412077 -0.5744984
0.107663475 0.2841398 0.4926407 -0.18050621 0.016671263 0.29065582 0.15602024 -0.42556092
00000000: a990 473e ec26 8bbe 2e93 003f 23f6 0c3e
00000010: 1ffa abbe 0609 633e a1c5 12bd e4d2 ae3e
00000020: b2f8 dd3d daf8 74bd 0660 333e c2c6 063d
00000030: f0cd 193e cbdd dfbc ebe4 033d f912 5bbc
00000040: 0ba5 38bd 3696 2a3d 0afa 093f 04f7 383e
00000050: 49f7 d3be 503e 46be 9177 4abe f610 24be
00000060: a558 05bd 17df 3dbe 363f 383f ffe7 e63e
00000070: 1c26 b5be 2795 ad3e 7abe dc3b c296 c93e
00000080: 68ea 363f 6d88 37bf 7475 41bf 31a0 b4be
00000090: 3ae8 963e 2aee 74bd ac5a 463f e5fd 303e
000000a0: cd6c db3e b8ea 66bd 7a7d 503e c2ca c03d
000000b0: 7ffc 583e 34ff 8e3e bdb9 84bd f01c d03d
000000c0: dc9c 00ba d002 8bba 0151 64bf 9a53 5dbd
000000d0: 0e5e 8c3e 15bf 9cbc 1bce be3e 9aa7 a73e
000000e0: c93d 2e3e e90c 79be 54b8 963e 4a2f 803e
000000f0: 9a63 4cbe a6a1 d53e c870 823c f488 8b3e
00000100: c16e 3dbe f05c 2dbe 0352 0d3c 846f 063e
00000110: 8c6b 3ebf 8ef3 46be 9d26 ea3e 5de6 b9bd
00000120: 6fd0 5d3e 2781 3e3e 3df5 043f 558d 823e
00000130: 33d9 113e b383 6f3e d1db 01bf 0dae 143e
00000140: 50f1 1ebf 3bcc 84be e5f6 b2bc 4a3d 73bd
00000150: 1237 303e 3e8d 71be 4b9a 813c 5b17 953e
00000160: 3067 5f3e db16 563e 1ba8 873d 69fa 39be
00000170: 65d1 823d 4589 383c bf14 7abe 7ed3 24be
00000180: d00f 1e3e 65c5 803c a8e2 11bf 20ed c9bd
00000190: 905c 873e 3534 e8bb 1687 533e 6bb7 9a3e
000001a0: 5a7a d7be 1262 63be 75b1 833e 524a cdbc
000001b0: 2227 863c e7ae 46bc 92cb 5a3f 1c9b 1e3f
000001c0: a3c5 fd3e e203 3ebe 0304 073b f3ac e53e
000001d0: 2738 83be 3775 203e a1d5 cbbe d7eb bdbe
000001e0: d7b5 71be 5ad8 33be da48 523e 60fe dcbe
000001f0: 10cc 363d c20c d7bd 98ff d6be 5f2b 02be
00000200: dc72 8dbc 0bb2 b13e 3f9d abbe f549 2c3d
00000210: 8858 953e a939 523e 09e5 373d f848 cf3e
00000220: f68a 8f3e 412a 963d a106 40be 68fe 98be
00000230: 3fb4 0ebd 7e16 03be 43e4 84be 3c63 7a3e
00000240: 205d 2f3d 58e4 ab3d c229 e6bc b7e3 0b3e
00000250: 1f9b 0d3e e948 a73e eae8 01bd 581e 9a3e
00000260: 54cf 0bbe 38f5 8e3d abff f8be 2d32 ebbe
00000270: 3a02 0ebe cbc5 23be 9ab6 eb3e 743b d7bd
00000280: 596a bfbe 1f3c 5e3e fee6 d63d 2a63 853e
00000290: e734 393e 0f72 0b3e 78e5 48be 3ab8 82bd
000002a0: 92e5 b5be 90bb 49be feca abbd 18e3 ba3e
000002b0: 8e5b a13d 452f 053e 4307 003f 7900 473f
000002c0: 9e0a 9dbe 5e06 833e 8ba1 f9be 69c4 ab3e
000002d0: 8162 0dbd 98c8 aa3d b675 80bf 9e24 c2be
000002e0: ecc4 a2be 60d7 613e 27a2 11bf bbb3 70be
000002f0: f9dc 7bbe afcf 2abe dcb7 0c3e fd4e e2bd
00000300: 51b5 00be f786 b4bd fdc4 d9be c2ec 10bf
00000310: 2c6f a83e 94a6 e03d 5e10 cd3e 086c ffbd
00000320: a0bc a33e 0a55 99be 1633 9e3e b7fe d9bd
00000330: 633c 593e 99a7 353e 1039 7a3e 9ff6 6bbd
00000340: 34b3 ba3d 8ec3 8b3e 0550 1cbc 68eb 61bc
00000350: 1dfb 79be 9633 023f 33e7 f13e 5f61 d23e
00000360: 633e 953e 7c71 a1bd 62bb 26bf adff 023f
00000370: e920 efbe 3bcf ae3e 0f23 a0be 2134 abbe
00000380: 50e2 c93e ded4 94be 27ac 143d 7751 6b3e
00000390: 0093 da3e 8125 033f d0fb f6bd 6d02 263e
000003a0: 50f8 9c3e 4264 6d3d 3424 b6bd 44f1 6f3c
000003b0: 6ef6 70be 734f a53e 6875 9b3e 10dd 8ebe
000003c0: f83c 94be d714 b6bd 3201 2c3e 1d45 db3c
000003d0: df02 43be 5e0e 463c c2fb d2be 5412 13bf
000003e0: ab7e dc3d c67a 913e 673b fc3e 9fd6 38be
000003f0: 2c92 883c d7d0 943e c5c3 1f3e 1fe3 d9be

mean_net.0.bias f4 [64]
-0.27256674 0.3488228 0.2617099 0.14402471 -0.17152481 -0.09933939 0.19290735 0.43448263
0.046954036 -0.18450682 0.49175096 0.028346304 0.47372502 0.025738414 0.39517152 0.32841432
-0.2626845 0.3803927 0.09217284 -0.2835588 -0.28565663 -0.42834136 -0.26382923 -0.25123918
0.35248777 -0.12529846 -0.021455416 0.22329992 0.13168171 -0.030959198 0.114963636 0.24233264
-0.5141517 0.498314 -0.122362524 -0.25224274 -0.20399442 0.32901454 0.22780336 0.2838483
-0.05674676 -0.006751989 -0.0695864 -0.24491346 0.060302276 0.059042294 -0.07107508 -0.008855003
0.05963171 0.16759086 0.19592881 -0.21174309 -0.11327102 0.20034534 0.3741556 0.44803783
-0.36258662 0.2901333 -0.6359096 0.28795293 -0.16342582 -0.032397646 -0.1597866 0.37874645
00000000: de8d 8bbe e798 b23e d7fe 853e 377b 133e
00000010: 33a4 2fbe 7372 cbbd 8189 453e 8274 de3e
00000020: e052 403d 5bef 3cbe c8c6 fb3e 8236 e83c
00000030: 168c f23e 5ed9 d23c ec53 ca3e ec25 a83e
00000040: 957e 86be d5c2 c23e 1dc5 bc3d 9e2e 91be
00000050: 9641 92be 8f4f dbbe a014 87be 6ca2 80be
00000060: 4779 b43e 3d4e 00be 45c3 afbc bca8 643e
00000070: 92d7 063e 259e fdbc 0e72 eb3d 0c26 783e
00000080: 729f 03bf 0323 ff3e 3499 fabd f625 81be
00000090: eae3 50be 9874 a83e 4945 693e 9054 913e
000000a0: 4a6f 68bd ca3f ddbb 5183 8ebd 98ca 7abe
000000b0: 85ff 763d 55d6 713d d08f 91bd 9314 11bc
000000c0: 6140 743d f09c 2b3e 90a1 483e 2ed3 58be
000000d0: a3fa e7bd 5427 4d3e 5391 bf3e 3765 e53e
000000e0: f4a4 b9be 5a8c 943e f9ca 22bf 916e 933e
000000f0: 1959 27be 65b3 04bd 199f 23be 0eeb c13e

mean_net.2.weight f4 [64, 64]
-0.054858733 -0.16412789 0.04776273 0.084793426 0.13394798 -0.034988884 0.12794778 0.07424979
-0.11253124 -0.07932407 0.04855396 -0.05728469 0.04465791 -0.11068051 0.08590354 0.04750272
0.011234607 0.056724224 -0.050946366 -0.0022737246 -0.005298088 -0.07661656 -0.026967462 -0.056641165
0.115780726 0.09608187 0.11016213 0.09953351 -0.14031309 0.07191361 -0.029251624 -0.10461363
0.055808775 -0.056005545 0.032649707 0.0042088395 0.12553954 -0.07610206 -0.09649341 0.1103171
0.042132195 0.033538386 0.0012880678 -0.14615522 0.08772889 -0.09865265 0.006437646 0.08656887
0.061109986 -0.099595726 -0.1124627 0.032091178 -0.122756295 -0.09719016 -0.10945981 -0.061834242
0.023197608 -0.097325765 -0.046691857 -0.117872946 0.07311278 -0.043624196 -0.1799051 0.024900675
-0.08974246 0.0716332 0.07287528 -0.11274897 -0.13701597 -0.053811267 -0.06708862 0.019224605
-0.12552844 -0.085462146 0.06690185 -0.008820999 -0.049356468 -0.09755421 0.047550138 0.012524416
-0.055012014 -0.072408624 0.03369405 -0.0077949134 0.05066147 0.032747198 -0.020774774 -0.097837225
0.07636704 -0.004463524 -0.078023225 0.11174402 0.061264258 -0.081561275 -0.09023265 -0.048264943
-0.07126009 0.064682595 -0.0889759 0.0897095 -0.044066045 0.074680515 0.0046646874 -0.08723656
0.081016846 -0.10975189 -0.040145222 0.056002192 0.025641903 -0.05651734 -0.07941145 -0.06317732
-0.05761879 -0.12526415 -0.030563105 -0.08091949 0.050018348 0.0041166013 -0.078636274 -0.06497255
0.020989692 -0.0019724565 0.08475524 -0.01684974 -0.10546917 -0.08878547 0.03834346 -0.02467622
0.016061477 -0.02544135 0.05001449 -0.03514509 0.080490164 0.034387477 -0.028382888 0.11449574
0.034041088 -0.068966314 -0.07820137 0.105631694 0.06445457 0.08879924 -0.004355897 0.08548454
0.07306184 0.04985638 -0.019059483 0.15029918 0.022157611 -0.043474507 0.0056523066 0.113256365
0.092971765 -0.021812307 0.10987552 0.055902693 -0.075145185 -0.10564657 0.07102065 0.106058344
-0.072183356 0.06202753 0.015298824 -0.0053982856 -0.034917016 0.03205042 0.03696326 0.086908914
0.037120666 0.05212018 0.040663183 0.032560006 0.034030996 -0.04502595 0.083587624 0.025225861
0.070766136 0.08569616 -0.03577199 0.073993586 -0.025563886 0.115375 0.0996366 -0.04078272
-0.019383151 -0.065030225 -0.05459463 -0.019001728 -0.002917185 -0.050670017 -0.08184933 -0.07140222
0.029279817 -0.07592049 0.12976213 0.139859 0.062477402 -0.007166789 -0.04145912 0.15281212
-0.12519498 -0.008529923 -0.12072083 0.010925717 -0.057189155 -0.13719589 -0.03421281 -0.05241832
-0.03998281 0.15043823 0.06518842 -0.044331066 -0.14469019 0.052867018 0.03577229 -0.16215415
0.12336067 -0.11090914 0.07776643 -0.045874063 -0.15357499 -0.11500745 0.0016816923 -0.06271264
-0.14850935 0.075350866 0.034675375 0.13308807 -0.08841316 -0.11500893 0.13484216 -0.095192686
0.04175653 0.10774045 -0.11128064 0.037742414 0.029552426 -0.09411469 -0.01927462 -0.06719155
-0.08025402 -0.23636019 0.00830733 -0.13253626 -0.1617432 0.00082089636 -0.033107772 -0.08254311
0.029788544 -0.1033751 0.03711834 0.13615559 -0.11101535 -0.12464895 0.03543144 0.101857506
00000000: 8db3 60bd 2411 28be daa2 433d 2da8 ad3d
00000010: a929 093e 8150 0fbd be04 033e 4610 983d
00000020: c776 e6bd a874 a2bd 84e0 463d 5aa3 6abd
00000030: 36eb 363d 77ac e2bd 32ee af3d 3692 423d
00000040: 5b11 383c a957 683d 23ad 50bd c502 15bb
00000050: 959b adbb 25e9 9cbd deea dcbc 9100 68bd
00000060: 721e ed3d 92c6 c43d af9c e13d 3ad8 cb3d
00000070: 3cae 0fbe 7147 933d 1aa1 efbc ac3f d6bd
00000080: be97 643d 1266 65bd b3bb 053d 4eea 893b
00000090: 708d 003e 66db 9bbd 569e c5bd efed e13d
000000a0: cf92 2c3d 8c5f 093d 62d4 a83a b7a9 15be
000000b0: 34ab b33d 670a cabd e4f2 d23b 054b b13d
000000c0: 774e 7a3d d8f8 cbbd d852 e6bd 0a72 033d
000000d0: a767 fbbd a20b c7bd 772c e0bd e745 7dbd
000000e0: e908 be3c bb52 c7bd f63f 3fbd 5f67 f1bd
000000f0: 27bc 953d 49af 32bd 0b39 38be 80fc cb3c
00000100: e5ca b7bd 6db4 923d a33f 953d efe8 e6bd
00000110: ea4d 0cbe 3469 5cbd c265 89bd eb7c 9d3c
00000120: 878a 00be c706 afbd d603 893d f485 10bc
00000130: 022a 4abd 80ca c7bd efc3 423d 3533 4d3c
00000140: 4754 61bd f94a 94bd c602 0a3d 796c ffbb
00000150: 6782 4f3d ed21 063d dc2f aabc e25e c8bd
00000160: 5366 9c3d c142 92bb a4ca 9fbd 0cda e43d
00000170: 3bf0 7a3d 9909 a7bd e5cb b8bd 76b1 45bd
00000180: cff0 91bd 4f78 843d ff38 b6bd 9db9 b73d
00000190: 997e 34bd 19f2 983d 3cda 983b 15a9 b2bd
000001a0: 29ec a53d 99c5 e0bd 516f 24bd 8e62 653d
000001b0: f80e d23c ba7e 67bd 78a2 a2bd 1c63 81bd
000001c0: ae01 6cbd 3f45 00be 7a5f fabc 1eb9 a5bd
000001d0: 0ae0 4c3d 8ee4 863b 0e0c a1bd 5410 85bd
000001e0: 93f2 ab3c 5444 01bb 2894 ad3d 7708 8abc
000001f0: 3800 d8bd 28d5 b5bd 080e 1d3d c925 cabc
00000200: 5c93 833c 616a d0bc fedb 4c3d 4cf4 0fbd
00000210: 07d8 a43d e2d9 0c3d 3b83 e8bc be7c ea3d
00000220: ab6e 0b3d 363e 8dbd 0a28 a0bd 6e55 d83d
00000230: c200 843d 60dc b53d eabb 8ebb 8512 af3d
00000240: 72a1 953d 3436 4c3d a222 9cbc 07e8 193e
00000250: e183 b53c 5312 32bd fc36 b93b f4f2 e73d
00000260: fb67 be3d b9af b2bc 6b06 e13d 39fa 643d
00000270: b8e5 99bd 3b5d d8bd 4673 913d 1e35 d93d
00000280: ded4 93bd 9410 7e3d eba7 7a3c 1ae4 b0bb
00000290: 2505 0fbd 4d47 033d ca66 173d 4dfd b13d
000002a0: d70b 183d f87b 553d 708e 263d a45d 053d
000002b0: 1664 0b3d 216d 38bd fd2f ab3d 77a6 ce3c
000002c0: d6ed 903d 7881 af3d a685 12bd f389 973d
000002d0: 5b6b d1bc ba49 ec3d 460e cc3d c80b 27bd
000002e0: 6ac9 9ebc 912e 85bd 9e9e 5fbd 83a9 9bbc
000002f0: 3e2e 3fbb 5d8b 4fbd 9fa0 a7bd 543b 92bd
00000300: 3adc ef3c 347c 9bbd 5de0 043e 3337 0f3e
00000310: 4ee8 7f3d 62d7 eabb 0ad1 29bd c87a 1c3e
00000320: 1d33 00be 17c1 0bbc 7c3c f7bd c701 333c
00000330: 2d3f 6abd 147d 0cbe bb22 0cbd 98b4 56bd
00000340: 04c5 23bd 7b0c 1a3e 8281 853d 7e94 35bd
00000350: aa29 14be 168b 583d f785 123d bd0b 26be
00000360: 85a4 fc3d 5524 e3bd 0244 9f3d 71e6 3bbd
00000370: c342 1dbe 0789 ebbd 3b6c dc3a 7c6f 80bd
00000380: d612 18be 8e51 9a3d c407 0e3d 3d48 083e
00000390: f511 b5bd cd89 ebbd 1014 0a3e 62f4 c2bd
000003a0: e508 2b3d 06a7 dc3d 1be7 e3bd ca97 1a3d
000003b0: ee17 f23c 34bf c0bd cfe5 9dbc b99b 89bd
000003c0: 385c a4bd 6808 72be 781b 083c 96b7 07be
000003d0: 02a0 25be 6c31 573a 049c 07bd 5d0c a9bd
000003e0: 1b07 f43c 53b6 d3bd 6709 183d 5f6c 0b3e
000003f0: 045c e3bd f347 ffbd 8f20 113d ab9a d03d

mean_net.2.bias f4 [64]
-0.13569412 0.08928983 -0.1040838 0.12736113 0.07032553 0.004219145 0.1003678 -0.15586543
0.11267642 0.09926036 0.18217096 0.012160911 0.106948815 -0.09734827 -0.013017352 0.05079031
0.010842797 0.035584323 0.08117654 0.09750096 -0.09103043 0.013578917 -0.076979496 0.046344228
0.065028444 -0.03778649 0.01749728 -0.13589686 0.14969906 0.010142758 -0.05215817 -0.020930292
-0.020525735 -0.09716492 -0.0999194 -0.15434472 0.10315206 0.0930644 0.04409191 -0.07202345
-0.030230228 0.124841064 -0.078448735 -0.07837556 0.09697585 0.07400056 0.125413 -0.009378834
-0.056159046 -0.10124162 0.0038047328 0.06978624 -0.08109337 -0.070716314 0.012681606 -0.10051172
0.029883688 -0.13494079 -0.03630663 0.020035077 0.035727713 -0.030055167 0.0686343 0.043091673
00000000: 66f3 0abe 96dd b63d e329 d5bd f56a 023e
00000010: d506 903d c140 8a3b a28d cd3d 309b 1fbe
00000020: e5c2 e63d 0449 cb3d 068b 3a3e 8f3e 473c
00000030: fb07 db3d 885e c7bd bb46 55bc 8009 503d
00000040: fda5 313c dec0 113d e33f a63d 95ae c73d
00000050: 296e babd 1b7a 5e3c 6da7 9dbd 72d3 3d3d
00000060: a22d 853d 02c6 1abd 7556 8f3c 8c28 0bbe
00000070: b64a 193e cf2d 263c cea3 55bd 0176 abbc
00000080: 9625 a8bc 67fe c6bd 8ba2 ccbd 8b0c 1ebe
00000090: 6341 d33d 8c98 be3d b899 343d 0881 93bd
000000a0: 62a5 f7bc acac ff3d bba9 a0bd 5e83 a0bd
000000b0: 469b c63d 9b8d 973d 446c 003e aea9 19bc
000000c0: 0707 66bd c457 cfbd d358 793b 17ec 8e3d
000000d0: 4814 a6bd b7d3 90bd 83c6 4f3c 17d9 cdbd
000000e0: a3ce f43c eb2d 0abe 43b6 14bd 9a20 a43c
000000f0: 3957 123d 4136 f6bc 2490 8c3d e580 303d

mean_net.4.weight f4 [6, 64]
0.053016026 0.0422838 -0.0022683498 0.021735374 0.08426298 0.010327016 -0.10417315 -0.08068061
0.09255997 0.13060701 -0.043641362 0.0533003 0.0797898 -0.08864393 -0.025163012 0.08287835
-0.04346351 0.027480913 0.025994614 0.043254495 0.111313514 0.110109344 -0.071487844 0.008973642
0.029510492 0.07247465 -0.04940486 0.047305014 -0.028537558 0.040946234 0.00030446527 0.032440767
-0.033637535 0.007381144 0.09933945 0.10431764 0.0514981 -0.06038973 0.02969602 0.009963753
-0.06787393 -0.123124994 0.020203764 0.017958365 0.09811317 0.029810179 -0.05796887 -0.016329803
0.019217331 -0.0019965568 0.06948184 0.038901366 0.06882847 0.09152867 -0.09734958 0.04181654
-0.08616418 -0.028110811 -0.008407358 0.030888928 -0.011965077 0.05156086 0.07132854 0.024073893
-0.012462765 -0.03133389 0.00094360055 0.013656016 0.030900298 -0.0046119173 -0.11503405 -0.08919219
0.09160538 0.022684623 -0.09622822 -0.10511392 -0.054763023 -0.084625475 0.08765448 0.0780706
0.020069888 0.025173577 -0.019535664 -0.043706495 -0.015210594 0.035032626 -0.022178806 0.050470725
0.033604268 0.1638537 0.0136818765 0.072087385 0.01063535 0.018840097 0.041504983 -0.018104028
0.004208361 0.008770603 0.0590065 -0.07284287 0.022238242 0.013345323 -0.015742246 -0.024197644
-0.04453961 0.00693791 -0.026771758 0.014716304 0.09431402 -0.03083072 0.03830978 -0.027934302
-0.0066015283 0.0147131635 0.046587773 -0.015814366 0.00083494297 -0.12529139 0.08268983 -0.028085075
0.0089585725 -0.09937013 -0.027708974 0.04501792 -0.060036737 0.009411049 0.01646751 0.08998822
0.08333477 -0.025499968 -0.007709888 0.04090277 -0.021403652 -0.00937305 -0.1195468 0.09109043
-0.044141445 0.14092644 -0.067139655 0.056722533 -0.036025964 0.08178505 0.088147774 0.09466478
0.005041385 -0.054824363 -0.032405578 -0.056939166 0.037137568 0.07651311 -0.0695611 0.037851047
-0.018543443 0.049239397 -0.06844713 0.025429623 0.044764012 0.08437194 0.069781475 0.025862172
0.020400075 0.002847784 0.047369666 0.1645638 0.027410438 0.047703076 -0.074537836 0.0041231234
0.011782392 0.045757875 0.041011356 -0.08449461 -0.020322498 -0.051496565 -0.029333249 0.06008166
-0.0037200793 -0.025242988 -0.06418365 -0.028385317 0.052895837 0.051236443 -0.17773648 0.13765542
0.014003147 -0.0863373 0.051956862 -0.04592875 -0.015404998 0.050283685 -0.03649749 0.021254392
0.1452764 0.021404227 0.0028149048 -0.05824956 -0.09021021 0.0073422603 -0.008618494 0.086091615
0.09542094 0.08501242 0.038619384 -0.0789179 -0.013452093 0.025395023 -0.066059805 -0.024429774
0.007781409 -0.06869409 -0.027391128 -0.08750271 0.0005982736 -0.012676477 0.041464683 -0.026263688
-0.04776972 0.055460356 -0.084667355 0.04477282 -0.038719542 -0.04563974 0.042137247 0.050269797
0.072712585 0.035900995 -0.027855473 -0.043963466 -0.11856475 -0.011198675 0.033113044 0.09418447
0.05288572 0.0054499386 -0.064232886 0.059045658 0.032194924 -0.021869436 -0.069182016 -0.11901367
0.049095977 0.008422765 -0.031084867 0.0011286996 -0.04521422 0.09999915 0.1163989 0.007609436
-0.029079579 -0.049039923 0.03418446 0.0028130026 0.022331554 0.038926497 -0.04712892 0.0989345
00000000: 5527 593d c731 2d3d 98a8 14bb 620e b23c
00000010: 1292 ac3d a532 293c bc58 d5bd e03b a5bd
00000020: 1590 bd3d d8bd 053e 49c1 32bd 6a51 5a3d
00000030: d668 a33d f38a b5bd a922 cebc 20bc a93d
00000040: cb06 32bd a71f e13c a8f2 d43c a02b 313d
00000050: 57f8 e33d 0281 e13d 3868 92bd 2f06 133c
00000060: fdbf f13c 976d 943d c05c 4abd e7c2 413d
00000070: 99c7 e9bc 3db7 273d a3a0 9f39 9ce0 043d
00000080: 83c7 09bd 86dd f13b 7b72 cb3d 7da4 d53d
00000090: acef 523d 395b 77bd 1145 f33c 023f 233c
000000a0: 7d01 8bbd f528 fcbd 5d82 a53c 6c1d 933c
000000b0: 8fef c83d 7a34 f43c c470 6dbd 14c6 85bc
000000c0: aa6d 9d3c aad8 02bb 7f4c 8e3d 0a57 1f3d
000000d0: f1f5 8c3d 6273 bb3d 375f c7bd d247 2b3d
000000e0: d876 b0bd a548 e6bc 04bf 09bc c70a fd3c
000000f0: 2c09 44bc 7b31 533d b314 923d 9d36 c53c
00000100: a030 4cbc f757 00bd f65b 773a 7cbd 5f3c
00000110: 9f22 fd3c 911f 97bb f996 ebbd 65aa b6bd
00000120: 9a9b bb3d 1ad5 b93c 4d13 c5bd f845 d7bd
00000130: 314f 60bd 1f50 adbd 3184 b33d 7be3 9f3d
00000140: 9b69 a43c d138 ce3c 4209 a0bc 9505 33bd
00000150: db35 79bc 5f7e 0f3d 54b0 b5bc 64ba 4e3d
00000160: a1a4 093d 44c9 273e f329 603c 8da2 933d
00000170: e43f 2e3c 8c56 9a3c 2101 2a3d e64e 94bc
00000180: 4ae6 893b 93b2 0f3c cdb0 713d a52e 95bd
00000190: f92c b63c 57a6 5a3c e2f5 80bc 233a c6bc
000001a0: 2b6f 36bd 6857 e33b 7250 dbbc a71c 713c
000001b0: b527 c13d b590 fcbc b7ea 1c3d 7ad6 e4bc
000001c0: a251 d8bb 7b0f 713c d2d2 3e3d 218d 81bc
000001d0: 13e0 5a3a 634c 00be 4959 a93d ac12 e6bc
000001e0: fac6 123c 9182 cbbd eefd e2bc b664 383d
000001f0: 15e9 75bd cd30 1a3c dfe6 863c be4b b83d
00000200: 6bab aa3d 4fe5 d0bc 3aa3 fcbb aa89 273d
00000210: b656 afbc 6c91 19bc f4d4 f4bd 9f8d ba3d
00000220: a9cd 34bd 054f 103e 8480 89bd e355 683d
00000230: f68f 13bd ec7e a73d d286 b43d 9cdf c13d
00000240: 3432 a53b 838f 60bd b6bb 04bd 0b39 69bd
00000250: 901d 183d e8b2 9c3d 0d76 8ebd b309 1b3d
00000260: 6be8 97bc 40af 493d 022e 8cbd c951 d03c
00000270: 785a 373d 32cb ac3d 97e9 8e3d e8dc d33c
00000280: 0f1e a73c e3a1 3a3b b206 423d 6a83 283e
00000290: db8b e03c 4d64 433d 4ba7 98bd 441b 873b
000002a0: ef0a 413c 9c6c 3b3d 86fb 273d 830b adbd
000002b0: 5e7b a6bc 10ee 52bd 484c f0bc 3018 763d
000002c0: 93cc 73bb 62ca cebc b872 83bd 5388 e8bc
000002d0: 4ea9 583d 4edd 513d 8d00 36be 8bf5 0c3e
000002e0: 756d 653c 9cd1 b0bd b8d0 543d c91f 3cbd
000002f0: 3f65 7cbc 44f6 4d3d 647e 15bd b11d ae3c
00000300: 56c3 143e eb57 af3c 447a 383b 1797 6ebd
00000310: 21c0 b8bd 5897 f03b 9534 0dbc cd50 b03d
00000320: 0e6c c33d fe1a ae3d 5c2f 1e3d b59f a1bd
00000330: 2b66 5cbc 3909 d03c 5d4a 87bd f320 c8bc
00000340: 31fb fe3b 7daf 8cbd 5c63 e0bc 9f34 b3bd
00000350: 76d5 1c3a 00b1 4fbc dfd6 293d f226 d7bc
00000360: 2faa 43bd 662a 633d 1466 adbd b463 373d
00000370: 6298 1ebd bcf0 3abd 1b98 2c3d b4e7 4d3d
00000380: 56ea 943d ec0c 133d 2931 e4bc 0913 34bd
00000390: 13d2 f2bd a67a 37bc 8ba1 073d cae3 c03d
000003a0: b29e 583d 6695 b23b 888c 83bd dcd9 713d
000003b0: d3de 033d 8827 b3bc 4daf 8dbd 70bd f3bd
000003c0: dd18 493d a3ff 093c b1a5 febc e0f0 933a
000003d0: 8c32 39bd 5bcc cc3d 8c62 ee3d 9358 f93b
000003e0: 4c38 eebc 16de 48bd 0105 0c3d 5a5a 383b
000003f0: aaf0 b63c 6471 1f3d 410a 41bd 2c9e ca3d

mean_net.4.bias f4 [6]
-0.062404852 -0.034393974 -0.03204882 -0.04549147 0.06371188 -0.024529899
00000000: 3b9c 7fbd b2e0 0cbd a045 03bd 4355 3abd
00000010: 607b 823d edf2 c8bc
